Convolutional_NN/model/cifar_net.pth (torch_old, 249664 bytes, 10 tensors)

conv1.weight f4 [6, 3, 5, 5]
000000 df 09 03 3f 55 c7 e0 3e 98 61 c5 3e 56 38 1a bd
       0.5118694 0.43902078 0.3855102 -0.037651382
000010 3a 76 81 be cd d9 20 3f 44 a0 bd 3e ed 09 df bd
       -0.25285512 0.6283234 0.37036335 -0.10890565
000020 ea 2c 96 be 12 92 89 be 45 c9 26 3f 38 41 14 3c
       -0.29331142 -0.26869255 0.6515086 0.0090487525
000030 4a 87 bd bd fc 00 85 be 8a 45 3a bd 8b 86 ae 3c
       -0.0925432 -0.25977314 -0.045476474 0.02130439
000040 e5 98 b9 be 25 96 99 bd 77 d7 04 bd db 21 45 3d
       -0.36249462 -0.07499341 -0.032432046 0.04812799
000050 87 bf 3a 3e c3 b9 3c bd 14 d3 c5 3d d2 49 05 be
       0.18237124 -0.046075594 0.096594006 -0.13016441
000060 2f 24 4f be d5 dd 1e be 4b cd a7 be b9 d9 83 be
       -0.20228647 -0.1551431 -0.32773814 -0.25752047
000070 29 ee 20 bf 2f 15 18 bf a9 e6 a0 3e 99 61 cf be
       -0.62863404 -0.59407324 0.3142598 -0.4050415
000080 9f e3 11 bf 24 bf 15 bf c3 79 d8 be 0b fa 65 3e
       -0.5698795 -0.5849478 -0.42280397 0.22458665
000090 1a ba b2 be ae 70 0d bf 57 82 9d be 0e 36 9b 3b
       -0.3490761 -0.5525006 -0.30763504 0.0047366684
0000a0 57 14 9f bd 0c aa e0 be 6b 17 57 be 83 ff c8 3d
       -0.077675514 -0.43879735 -0.21005027 0.0981436
0000b0 2d a8 d9 3d d8 46 2f 3e a7 17 63 bd 39 f9 51 bd
       0.1062778 0.17116868 -0.05544248 -0.051263068
0000c0 30 3f a5 bd 0d b8 6f bd 43 c0 22 3e b8 8b 2a 3c
       -0.08068693 -0.058525134 0.15893655 0.010409288
0000d0 ac bf b0 3c 08 86 3e 3e 2d 56 8b 3e d9 5a 32 3e
       0.021575771 0.18605816 0.27214184 0.17417468
0000e0 15 92 33 be e6 6c 73 be 63 7b a5 bd ea 92 40 3e
       -0.17536195 -0.2377201 -0.08080175 0.18806043
0000f0 ec 2c d5 3e 2e 32 ad be 66 4f b4 be bd 00 91 bd
       0.41635835 -0.33827347 -0.35216826 -0.07080219
000100 88 66 f5 3e 51 0e 1a bc 5a b2 9b be 38 04 92 be
       0.47929788 -0.009402827 -0.3040951 -0.28518844
000110 24 c6 82 3e 3e 54 90 3e c1 88 5e 3e cc da 9e bd
       0.25541794 0.28189272 0.21731855 -0.07756576
000120 0c 96 ed 3d 39 2d 66 3e b1 83 5d 3e da 97 a9 be
       0.11600885 0.22478189 0.21632268 -0.33123666
000130 5d 65 a2 be f1 f2 28 be 02 7a 10 3c 00 6e ca bc
       -0.3171796 -0.16498925 0.008818151 -0.024710655
000140 40 e6 17 bf 63 9b 93 be 0c 30 85 be 62 6f 5d be
       -0.5933571 -0.28829488 -0.2601322 -0.2162452
000150 ff 76 f7 be 06 b2 04 bf 2a ed 22 bf 61 e2 7c bf
       -0.48332974 -0.5183414 -0.63643134 -0.98782927
000160 54 24 4b bf b8 5d 93 be 63 89 38 be 37 71 5b be
       -0.7935231 -0.2878244 -0.18021159 -0.21429907
000170 4f 03 71 be 2e 94 75 3d f3 14 2e 3e e8 4e cb 3e
       -0.23536418 0.05995577 0.17000179 0.39708638
000180 03 d6 0e 3f db 95 1a 3f 97 9d 26 3f 4c 72 cc 3e
       0.55795306 0.6038491 0.65084213 0.39930952
000190 02 0b 26 3e 49 32 7e 3d c1 07 06 3e 60 ad 15 3e
       0.16215137 0.062059674 0.13088895 0.14616919
0001a0 d1 b4 b3 3c 26 66 c8 3d d4 e0 a2 3e 70 33 e8 3d
       0.021936806 0.09785108 0.31812155 0.11337936
0001b0 70 1f 3a 3c 21 d3 2d be d2 74 d1 bd fa 8b 16 be
       0.011360034 -0.1697507 -0.1022736 -0.14701834
0001c0 a7 81 04 bf 10 81 c0 be b8 db c8 bd 7f c4 60 be
       -0.51760334 -0.37598467 -0.09807533 -0.21949957
0001d0 a5 99 6a be 1d db 47 bd 8c c7 7b 3e fa cf 1f 3e
       -0.22910173 -0.048792947 0.2458784 0.1560668
0001e0 42 c4 82 bd 45 a0 fb 3d 86 c4 4f 3e 86 76 80 3e
       -0.063850895 0.12286428 0.20289811 0.25090426
0001f0 74 5a 91 3d eb 2e 95 3e 66 bd 08 3e 20 a5 eb 3d
       0.07097331 0.29137358 0.133535 0.115061045
000200 1b 54 19 3e e4 c2 be bd ad df ad 3e ba 39 29 3f
       0.1497349 -0.09314516 0.33959714 0.6610371
000210 f8 91 d1 3e 25 14 74 3e 03 1b 52 bd 4c 07 a1 3e
       0.40931678 0.2383581 -0.05129529 0.3145088
000220 ac 3a 3a 3e 11 eb 09 be 4a 6f 88 be 76 f3 67 3d
       0.18186444 -0.13468577 -0.26647407 0.056628667
000230 c1 c7 89 3e e3 f9 c2 3c 8b f9 80 3e aa a7 5f 3e
       0.26910213 0.023800796 0.25190386 0.21841303
000240 d8 08 19 3d 46 b4 15 be ad 1e 37 3e 5a cb 22 3e
       0.03736195 -0.1461955 0.17882796 0.15897885
000250 ce 02 50 3d 88 09 b6 be e5 cf 5e be 52 67 46 be
       0.050783925 -0.35554147 -0.21758993 -0.19375351
000260 39 bb bf 3c 52 14 0d 3e 31 59 17 be 35 5a 4f 3d
       0.023404704 0.13777283 -0.14780118 0.050623138
000270 57 71 9d 3e 32 84 ad 3e e3 54 d5 3e 09 ac 91 3e
       0.30750534 0.3388992 0.41666326 0.28451565
000280 d4 fd 87 3e 2b df e7 3e 15 7e 19 3f e4 c7 28 3f
       0.26560843 0.4528745 0.5995801 0.6593001
000290 7e 3c 9f 3e 90 35 5a 3e 49 82 c6 3e 10 f7 c2 3e
       0.3110084 0.21309495 0.38771275 0.3807912
0002a0 39 df 72 3e a1 ac 23 3e 19 05 48 be e5 9f 3a bd
       0.23717965 0.15983821 -0.19533195 -0.045562644
0002b0 d2 db 83 3b 72 31 3a bc 37 c9 8a be af 01 db bc
       0.0040240074 -0.011364328 -0.2710664 -0.026734201
0002c0 02 53 a8 bd 43 8a 04 be 7e b3 c4 bd 5d 2d 43 bd
       -0.082189575 -0.12943368 -0.09604548 -0.047650684
0002d0 26 bc 40 be 34 9c ae be b6 ab 3c be d8 66 6b be
       -0.18821773 -0.3410355 -0.18424878 -0.2298845
0002e0 20 1c 8d be 15 1a 12 be ac 18 81 be 27 7a c5 be
       -0.2756052 -0.14267762 -0.25214136 -0.38569757
0002f0 12 23 a1 be 67 95 45 be fd a5 2b be 93 37 70 be
       -0.3147207 -0.19295274 -0.16762538 -0.234587
000300 68 6f 6f be 4e da 44 be 14 c3 86 bd c0 7d 99 3d
       -0.23382342 -0.19223902 -0.06580177 0.07494688
000310 70 80 a7 bd 9d cd 0b be 28 6f d9 bd 84 10 61 bd
       -0.081787944 -0.13652654 -0.106169045 -0.05494739
000320 70 38 c6 3e d5 58 ca 3e bb 51 84 3e 28 a2 52 3e
       0.38714933 0.39520898 0.25843605 0.2056967
000330 89 f2 a1 3e c7 ad cc 3d 7b b2 85 3a 73 53 2f be
       0.31630352 0.09994083 0.0010200286 -0.17121677
000340 c2 05 56 be aa ee 7f 3d fa f1 03 be 89 5f bd be
       -0.20900634 0.062483467 -0.12885275 -0.3698695
000350 65 3e db be 31 76 f4 be a1 29 86 3d 57 4b 4e bd
       -0.4282104 -0.47746423 0.06550909 -0.05036482
000360 d4 69 12 be 48 63 64 be 8b d9 1a be a2 84 13 3e
       -0.14298183 -0.22303498 -0.15122049 0.14406064
000370 e6 2b 78 3e 5f 30 9f 3d 3a fd c7 3c be 00 7b bd
       0.24235496 0.07772898 0.02441274 -0.061280005
000380 67 a1 df 3e ec 54 14 3d 73 3b bb 3d d8 00 dd 3d
       0.43677828 0.0362138 0.091421984 0.107911766
000390 e9 22 59 3e 28 14 f2 3d 2f 97 02 bd e7 34 e2 3d
       0.21204723 0.11820251 -0.03188246 0.110452466
0003a0 75 ec b8 3d e7 02 be 3d 8c fa 82 3d 97 d1 a0 bd
       0.090294756 0.09277897 0.06395444 -0.07852476
0003b0 4d 3a cf bd cb ac 18 be 8f bf 13 3d e5 e9 a4 3d
       -0.10118542 -0.14909665 0.036071356 0.08052424
0003c0 a0 65 5e be c1 b1 07 be fc 50 14 be 25 45 4b be
       -0.21718454 -0.13251401 -0.14484018 -0.19850595
0003d0 23 e4 23 3d f6 42 9e be 46 e4 c8 be 7d bb 75 be
       0.04001249 -0.30910462 -0.3923666 -0.23997302
0003e0 a5 d4 ac bd 18 eb 12 bc 6b 78 07 be d7 1f 7c be
       -0.08438996 -0.0089671835 -0.1322953 -0.24621521
0003f0 6b 40 17 be 1d a0 ca 3d 66 9d b7 bd 4c 63 78 bd
       -0.14770667 0.098938204 -0.08965568 -0.060641572

conv1.bias f4 [6]
000000 6f 82 44 bf 34 a7 3a 3e 7d 8c 17 bf d9 33 e4 3e
       -0.76761526 0.18227845 -0.59198743 0.44570807
000010 a3 bb 3b bf 2b 5e f1 be
       -0.73333186 -0.47142157

conv2.weight f4 [16, 6, 5, 5]
000000 39 a9 96 be 80 c7 87 be 4c ea 3c 3e 30 be 38 3d
       -0.29425982 -0.26519394 0.18448752 0.045103252
000010 7b b6 b5 3d e5 11 8f 3e 1d 6f 20 3d 2a ae b8 bc
       0.08872696 0.2794334 0.039168466 -0.022543985
000020 7f fc 96 bc b5 58 9f 3c c5 4f 9a 3e 71 21 eb 3c
       -0.018430946 0.019451478 0.30138984 0.02870247
000030 0b 7d 80 be 3b d3 43 3d 7a cb 2d 3e e2 64 61 3e
       -0.250954 0.047808867 0.16972151 0.2201114
000040 95 5b e8 3d 37 11 44 be 8d 36 2f be ff 3d f2 bc
       0.11345593 -0.19147192 -0.17110653 -0.029570578
000050 13 2a 08 be ed fe 11 3e 7e 20 8c 3e 7a cd db 3c
       -0.132973 0.14257403 0.2736854 0.026831377
000060 1c b8 3a be 8e 05 ef 3d eb 9b 87 3e 66 39 25 3e
       -0.18234295 0.11670981 0.26486143 0.16135177
000070 74 9e 62 bd 67 ad bc 3b 32 82 47 be 4e 37 82 bd
       -0.055326894 0.005757976 -0.1948326 -0.06358205
000080 fa 0b a9 3b 7a 64 2b 3d 1b b9 49 3e 83 c0 5e bd
       0.0051588984 0.04184387 0.19699518 -0.054382812
000090 bd e3 2b be 17 f9 9c be 76 73 71 be 09 83 34 3e
       -0.16786094 -0.3065879 -0.23579201 0.17628111
0000a0 0b ef 35 bd d6 61 29 3e 1e 51 f3 3d 76 45 24 be
       -0.044417422 0.16541228 0.11880706 -0.16042122
0000b0 ad 86 b9 bd 18 6d 96 bd 02 0c 81 3d f2 17 68 3d
       -0.090588905 -0.07345027 0.063011184 0.05666346
0000c0 10 57 01 3e 3c 1b c6 bc d9 07 ca 3c bd 75 b8 3d
       0.12630868 -0.024182908 0.024661945 0.09006832
0000d0 16 68 9b 3e d3 bb b3 3e 01 3b a8 3e 32 83 8f bd
       0.3035285 0.35104236 0.32857516 -0.070074454
0000e0 09 16 58 3e 14 77 b1 3c ba d2 d3 3d a8 6f 27 3e
       0.21102156 0.021663226 0.10342927 0.16351187
0000f0 3c 26 8e bd 6a 77 48 3e 6a 00 19 3d a6 eb 8d bd
       -0.069408864 0.19576803 0.03735391 -0.06929712
000100 84 29 9c 3d 20 c9 8a be f7 d9 67 bd a0 56 56 3d
       0.07625106 -0.2710657 -0.05660435 0.052328706
000110 6e 9e 2b bd fb b8 0f bd 2d c8 d6 be a4 d7 6c be
       -0.041899137 -0.03508852 -0.41949597 -0.23129135
000120 70 5b e6 bd 20 fd fd bd 2d 24 20 be 71 4a e9 3e
       -0.11247909 -0.124017954 -0.156388 0.45564607
000130 39 25 85 3e 16 67 9e 3e 18 0b bc 3e 73 89 5c 3e
       0.2600496 0.30938023 0.36727214 0.21536808
000140 2b 62 c5 bc a4 4c 1e bb 03 4d 04 3d 41 ba dc 3d
       -0.024094662 -0.0024154568 0.032300007 0.107777126
000150 fa 1f ce 3d 66 c3 20 be 5d 1e b7 be 98 e4 2f be
       0.10064693 -0.15699539 -0.35765353 -0.17177045
000160 ec ab 30 3e 60 16 39 be 33 1b 92 be ee 20 cc be
       0.17253083 -0.18074942 -0.28536376 -0.39868873
000170 0b 73 91 be af b4 48 3c 63 7a fd bd c8 e6 78 be
       -0.28408083 0.01225011 -0.12376859 -0.24306786
000180 94 3b a6 3c 0e ba 84 be 20 4f 90 be 70 02 a6 be
       0.020292081 -0.25923198 -0.28185368 -0.32423735
000190 87 3c 16 3e 57 91 49 bc 70 37 b1 3d 85 1d 33 3e
       0.14671527 -0.012302718 0.08653152 0.1749173
0001a0 55 37 24 3e 0c 9b 37 3e 8d f6 82 3e 86 d0 63 3d
       0.16036732 0.1793024 0.25578728 0.055618785
0001b0 5b 17 d4 3c 8a 52 46 3e 39 75 ad bd 44 ac 38 3e
       0.025890043 0.19367424 -0.08469624 0.18034464
0001c0 26 55 ff 3d 61 0b d0 3d 5e c9 ba 3d 2f a8 fe bd
       0.12467413 0.1015842 0.09120439 -0.12434422
0001d0 57 84 4d 3d a0 2d 8c 3e 95 eb 9c 3e c6 a2 66 3e
       0.050175037 0.2737856 0.30648485 0.2252303
0001e0 b8 a8 67 be 9e 14 e2 bb 7c dc c9 bb b7 97 62 3e
       -0.22622955 -0.0068994304 -0.006160317 0.22128187
0001f0 9c 7c a5 3e e2 c8 f7 be 5d 64 f8 be 7b 2b 61 be
       0.32321632 -0.4839545 -0.4851407 -0.21989243
000200 34 1b 9c be 1c 59 94 bd ae 14 67 b8 ec be 3d be
       -0.30489504 -0.07243559 -5.509395e-05 -0.18529862
000210 f8 83 99 be a0 70 94 be d1 f5 86 3e 60 56 9c 3e
       -0.29983497 -0.28992176 0.26359418 0.3053465
000220 6c f0 93 3d 7e 64 98 3d 81 59 81 bd 50 94 31 be
       0.07223591 0.07441042 -0.063159 -0.17341733
000230 51 69 db 3e 3a d8 5f 3e e1 bf 69 3e 7e 67 52 3e
       0.42853788 0.21859828 0.22827102 0.20547292
000240 73 1d 76 3c 2d 9f 08 bc 6c e8 3f 3d 82 47 43 bd
       0.01502167 -0.008338732 0.046852514 -0.047675617
000250 5c 90 76 be 76 29 5a 3e d8 10 f8 3d 0a fc 66 bd
       -0.24078506 0.21304879 0.12112588 -0.056392707
000260 88 96 0b 3e 45 c2 1c 3c ab 3d 2d bd 24 0e dd bb
       0.13631642 0.009567802 -0.04229514 -0.0067460705
000270 70 08 fa bd da 82 95 bd 28 92 1b be 3c f4 88 ba
       -0.122086406 -0.073003486 -0.15192473 -0.0010448764
000280 18 0c 1f be 7b 9b cc be 89 b3 dc be 26 56 d5 be
       -0.15531957 -0.39962372 -0.43105724 -0.4166729
000290 90 49 02 be 9f f2 64 bc fd 92 8c be e9 22 6e bd
       -0.12723374 -0.013973861 -0.27455893 -0.05813876
0002a0 6b 6c 37 be 30 37 c7 bc 03 42 f9 3d cf 50 ee bc
       -0.17912452 -0.024318308 0.12170794 -0.029091267
0002b0 d0 80 4b 3d f1 44 df 3d 3c 6e b8 3e 55 9a 3d be
       0.049683392 0.109018214 0.36021602 -0.18515904
0002c0 10 9c 27 be 2b ca 03 be 4b 3e 29 be 53 46 59 be
       -0.16368127 -0.1287009 -0.16527669 -0.21218233
0002d0 9e b3 37 bd 46 00 25 3e 07 10 03 3e 15 bb 23 3e
       -0.04484903 0.16113386 0.12799083 0.15989335
0002e0 b1 00 c6 bc 28 08 1e 3e f8 de b3 3d 5f a6 1e 3e
       -0.024170252 0.15432799 0.08782762 0.15493153
0002f0 9b aa 01 3e 2e 9a 06 3e 2d 4a 19 3e 23 38 08 3e
       0.12662737 0.13144752 0.14969702 0.13302664
000300 65 27 0d 3e 6e 79 70 3d 25 4a 31 3d 28 49 4d 3e
       0.13784559 0.058709554 0.0432836 0.20047438
000310 98 de a1 3d d2 ab 75 3d 8a 93 df bd 88 78 ba 3c
       0.079037845 0.059978314 -0.10916813 0.022762552
000320 25 9d de 3d c5 08 53 3e 56 47 45 3e 6b b7 9b 3e
       0.10869817 0.20608814 0.19265494 0.30413374
000330 b0 77 50 3e 42 cf e2 be 25 dd 0b bf 2f 31 09 bf
       0.20358157 -0.4429875 -0.54634315 -0.53590673
000340 00 d8 da be 94 19 b4 be d4 ae a1 be b1 a9 e6 be
       -0.4274292 -0.35175765 -0.31578696 -0.4505134
000350 2a 22 a4 be b6 79 2b be 3f 0b 05 be d6 0b 8b 3e
       -0.32057315 -0.16745648 -0.12992571 0.27157468
000360 13 b8 89 3e 8d d9 ad 3e 9e fe d7 3e fb 66 89 3e
       0.2689825 0.3395504 0.42186445 0.2683638
000370 75 76 29 3e c0 8c 14 3e db e3 41 3e f4 49 18 3e
       0.16549094 0.14506817 0.18934576 0.14871961
000380 f9 71 90 bb 80 7f ba 3b db f6 36 3d 09 d5 30 ba
       -0.004408118 0.0056914687 0.044669013 -0.0006745612
000390 c7 cd ab 3d bb 60 8b 3e 4d 75 8d be b0 e8 57 be
       0.08388858 0.27222237 -0.27628556 -0.21084857
0003a0 b9 77 0b be 03 fe c7 bd df 4f fc 3c 52 56 5d be
       -0.1361989 -0.09765246 0.030799804 -0.2161496
0003b0 80 f1 93 bd 59 a5 3a be 08 80 98 bd 7f 88 d5 bd
       -0.07223797 -0.18227138 -0.07446295 -0.10426425
0003c0 4d e4 09 bd 67 84 5b 3d 58 2b 14 bd 0a fd 3b 3e
       -0.03366499 0.053593066 -0.03617415 0.18358245
0003d0 cf f1 d2 bc 8d a8 e8 bd 1b 65 63 bc b0 1b 4c bc
       -0.025750069 -0.113602735 -0.013879086 -0.012457773
0003e0 7d 73 0b 3e dd 25 f0 3d 7a 4f 52 3e 57 09 91 3e
       0.13618274 0.11725972 0.2053813 0.28327438
0003f0 54 2e 71 3e 87 32 25 3e 21 c7 22 3e 80 08 bd 3d
       0.23552829 0.16132556 0.15896274 0.09230137

conv2.bias f4 [16]
000000 2a 80 94 bf 76 a0 74 3f 28 ab 43 3e 1f a9 43 be
       -1.1601613 0.95557344 0.1910826 -0.19107483
000010 c9 9c 34 be 08 74 19 40 bd ca f3 bd 23 d1 e3 bd
       -0.17637934 2.397707 -0.11903904 -0.11123874
000020 ab 56 91 3f 1b 3e a6 bf b3 ab a5 bf fc 6e 3e 3e
       1.1354574 -1.2987703 -1.2943023 0.18597025
000030 c2 d5 86 3f 38 43 85 3f bd 03 f6 3e 22 22 27 bf
       1.0533984 1.0411139 0.48049727 -0.6528646

fc1.weight f4 [120, 400]
000000 ad 32 f9 3c bf 1b 89 3d db fc bb 3d 84 54 04 3e
       0.030419672 0.06694745 0.09179088 0.12922865
000010 63 a1 d1 bd c5 bf 81 bb 94 30 5d 3c 13 fa 82 bd
       -0.1023586 -0.0039596283 0.013500351 -0.06395354
000020 fa fc dc 3c df 2f 54 3c 28 cc 1a be 7e 26 96 bd
       0.026976097 0.0129508665 -0.15116942 -0.073315606
000030 d8 f1 09 3d 4c d8 69 bc a1 5c 93 bd 79 e3 1f be
       0.033677906 -0.014272761 -0.07195402 -0.15614118
000040 36 aa 45 bc 4e 65 39 3d e6 4b 44 3d d3 19 8e 3d
       -0.012064507 0.045262627 0.047923945 0.06938519
000050 6e ac cb bd df 84 a2 3d 61 79 ac 3b dc 93 80 bc
       -0.09944998 0.079354994 0.005263493 -0.015695505
000060 86 f4 bf 3c 3d 29 90 bd e2 c5 d4 3d 66 35 f7 3c
       0.023432028 -0.070391156 0.10389306 0.03017683
000070 ba d9 e2 3d fa 8c 8f 3d 4b 8b 65 bc 0f 31 28 3d
       0.11076684 0.07009311 -0.014010261 0.04106241
000080 c0 5c ba bd 9d f1 35 bb 20 17 8d 3d 0d 3e 67 bd
       -0.09099722 -0.002776242 0.06889176 -0.05645566
000090 6f c7 e1 3d d2 e4 2e bd e8 14 b7 bd 9c cd 36 3d
       0.11024367 -0.04269869 -0.089395344 0.044629678
0000a0 4f b4 02 bd 95 f2 e3 3c 4a 6c 39 bd 32 a5 a0 bd
       -0.031910237 0.027825633 -0.045269288 -0.078440085
0000b0 6d 4f 25 bd fc da 02 be d3 77 82 bd a1 e7 e7 bd
       -0.04035895 -0.12778848 -0.06370511 -0.113234766
0000c0 62 2e 46 bd 60 82 9a bd dc f5 36 3e c8 cc 98 3d
       -0.048384078 -0.07544398 0.17867225 0.07460934
0000d0 e0 03 ab 3d d2 1b 18 3d ba 3d c8 bd ec 87 88 3d
       0.083503485 0.037135907 -0.097773984 0.0666655
0000e0 71 cd 61 3d c6 fa 14 3e f9 b9 26 3d 2a 6e e0 3c
       0.055127565 0.14548787 0.0407047 0.02739628
0000f0 96 bd 99 3d 64 bb bb 3b 1a 96 30 bd ae 1f 07 3d
       0.07506864 0.005729126 -0.043111898 0.032989196
000100 1e 05 e3 3d 5e a2 80 3d cd 5c 99 bd 2d b9 c7 bd
       0.110849604 0.06280969 -0.074884035 -0.09752116
000110 d6 f8 22 bd e5 56 27 bd 27 8e a0 3d 7d d0 5c 3c
       -0.03978809 -0.040854353 0.078396134 0.013477442
000120 62 c8 ce bc 04 6e 3e be 44 99 f2 bd 2f 00 29 3d
       -0.025242034 -0.18596655 -0.11845639 0.04125994
000130 04 c9 89 bd 2c b8 9f bd e6 fd 72 bd 5c 2d 70 bc
       -0.06727794 -0.077988 -0.059324168 -0.014659252
000140 bc 11 43 3e cd 86 25 3e 20 40 84 bc 7a 3a 21 bd
       0.19049734 0.16164704 -0.016143858 -0.03936241
000150 73 aa d3 3c 20 af 22 3e 00 ae 2a 3e 91 54 ce 3c
       0.025838112 0.15887117 0.16667938 0.025186809
000160 5d 6b 53 bd 58 f8 63 3d fb ce b4 bc 3e 0c 44 3e
       -0.05161606 0.05565676 -0.022071352 0.19145295
000170 4e 9d 19 3d ca 81 61 3b 47 2b 27 bd da 1a 9d 3d
       0.037503533 0.0034409636 -0.040812757 0.07671137
000180 04 84 18 3e 29 d4 3a bd 13 51 3c 3e 86 72 69 3d
       0.1489411 -0.045612488 0.18390302 0.056993984
000190 87 13 4f bd 6f 31 d7 bd c7 46 92 bd 11 bb fa bc
       -0.050555732 -0.105074756 -0.07142406 -0.030606778
0001a0 83 97 9b 3b ee 0a 28 be 9e b9 5e 3d c9 79 ea ba
       0.004748286 -0.1641042 0.054376237 -0.0017889078
0001b0 3d 85 7b bd 19 32 41 be 1f de f3 bd 69 3e 5a 3b
       -0.061406363 -0.18866767 -0.119076006 0.003330136
0001c0 c6 65 27 3d 22 94 42 3e 41 8a d5 3d a9 cb 9b bc
       0.040868543 0.1900182 0.104267605 -0.019018011
0001d0 e8 02 d7 bc 20 c5 b3 bd 13 86 4b 3d 34 a8 fc 3d
       -0.026246503 -0.08777833 0.04968841 0.1233677
0001e0 6b a2 d2 bd 27 5d c1 3d d6 00 23 3e 69 3b 7a 3d
       -0.10284885 0.094415955 0.15918288 0.061091814
0001f0 86 a4 3b 3e d5 7a 9a 3d ca a1 7d bc 3c 8c 63 3d
       0.1832448 0.075429596 -0.015480468 0.05555366
000200 dd 8d 67 bd cb 5a b8 3d e5 93 19 be 7d b1 25 bd
       -0.056531776 0.090016924 -0.14997824 -0.04045247
000210 bf d6 e7 3a 63 29 a4 bc 43 5e 3c 3a 47 5a 86 bc
       0.0017687901 -0.020039266 0.0007185677 -0.01640047
000220 2b a9 e1 3c 06 60 59 bd 12 4a fd bd 19 0e b6 bd
       0.027546486 -0.05307009 -0.123676434 -0.08889408
000230 2b b3 99 3c a6 8d 9f bd 58 49 c7 bd 7e bd 8f bd
       0.018762192 -0.07790689 -0.09730786 -0.07018565
000240 ac ba cf bd 06 61 8c 3a b5 2c 40 bb 49 60 fd bb
       -0.10143027 0.0010710068 -0.0029323522 -0.0077324254
000250 0d cb db 3c 46 8b 15 bd ff 1e 3d bd fe 0d 01 be
       0.02683022 -0.036509775 -0.04617214 -0.12602994
000260 38 3c 14 be 1a e8 97 bb 01 6e db bb 35 c7 3d 3d
       -0.14476097 -0.004635823 -0.006696463 0.046332557
000270 cf 2f 4f 3d 2c 18 26 3d d1 a9 de 3c 2a 8f 24 3d
       0.050582703 0.040550396 0.027180584 0.040175594
000280 4b 85 ff 3d 0f 81 42 3e f9 6a 00 3d a8 25 c6 3c
       0.124765955 0.18994544 0.031352017 0.024187878
000290 cf dc d9 bc b6 e9 34 bd 95 da 2b 3d ec 94 2d bb
       -0.026594548 -0.044168197 0.041956503 -0.002648647
0002a0 2c 8a 6c 3d ba 48 e5 bd 08 0f 76 3b 1e c9 2b bc
       0.05774896 -0.11195512 0.003754558 -0.010484962
0002b0 cb c8 31 3d f9 48 b0 3b 62 96 99 bd 12 e7 3a bd
       0.04340438 0.005379793 -0.07499386 -0.045630522
0002c0 41 b7 89 bd 9a 76 4a be 91 24 57 bd b4 50 c1 bd
       -0.06724406 -0.19771805 -0.052525107 -0.09439221
0002d0 e2 c9 c8 bd f7 7a 4a bd 3c 00 89 bd ca fa ef bd
       -0.09804131 -0.049433675 -0.06689498 -0.11717756
0002e0 e1 a9 8b bc a6 78 bb bd 28 b2 8a bc a7 c3 9e bd
       -0.017048778 -0.09153871 -0.016930655 -0.077521615
0002f0 99 8b b2 bd 4f 53 3b bb bc 29 53 bd aa 29 72 bd
       -0.087180324 -0.0028583591 -0.051553473 -0.059121765
000300 2a 1b 01 bd 06 5c 92 3d 68 5d c2 3b ef be cd bc
       -0.031520046 0.07146458 0.005931545 -0.025115458
000310 16 7a 6b 3c cb 3c 61 3d df 76 d8 3d c7 8b ec 3d
       0.014372369 0.054989617 0.10569548 0.11550098
000320 a1 dc 05 be 5a 26 f2 bd 66 5d b6 3d 69 72 96 3d
       -0.13072444 -0.11823721 0.08904533 0.07346041
000330 22 dd b7 3d c9 29 58 bd ba 64 1b be 5f 77 26 bd
       0.089777246 -0.052774224 -0.15175143 -0.040641185
000340 77 6b 47 3d 44 49 57 3d 6b bb 26 be 8e 18 87 bd
       0.04868647 0.052560106 -0.16282432 -0.0659648
000350 4d 94 14 3d 75 ef 36 3d cb 71 d9 bc 81 84 2c be
       0.036274243 0.044661958 -0.026543519 -0.16847421
000360 e1 06 69 bd ad fe 20 3c ca f5 ed 3c 0f 69 e5 3d
       -0.056891326 0.009826344 0.029047865 0.11201679
000370 d3 ce 9c bd 58 c9 8f bc 3f ee 74 bb 2c 3b 1f 3c
       -0.07656636 -0.017552063 -0.003737345 0.0097186975
000380 27 b4 01 3e 39 02 2b 3d 0d 69 38 3d fa 51 c2 bc
       0.12666379 0.041750167 0.04502206 -0.02372073
000390 dc 3a 14 bd 9f aa fa 3c 8f 69 c6 bc 1a 2d 68 3d
       -0.036188945 0.030598937 -0.024220256 0.056683637
0003a0 a2 28 51 bd ae 49 e8 3d c2 ac 5d 3d 1b af 8b 3d
       -0.05106414 0.11342178 0.054119833 0.06820508
0003b0 ae 83 2d 3a f5 2a 81 bd 9a 6c 2b 3e da dd 88 3d
       0.0006619048 -0.063070215 0.16740647 0.0668294
0003c0 4d 12 b1 3c 30 e0 81 3b b7 75 05 3c f4 36 8d 3d
       0.021615172 0.003963493 0.008145741 0.06895247
0003d0 59 52 3f 3c b2 31 ff bd ac 08 42 3e c6 51 21 3d
       0.011677348 -0.124606505 0.1894862 0.039384626
0003e0 44 30 7a bd 44 fb 08 3d 52 1d 92 3e 2f 88 21 3e
       -0.061081186 0.03344275 0.28537995 0.15774606
0003f0 d7 ce 8a 3d 22 b8 d0 bd fe 06 e4 bd ce 9b 1f bc
       0.06777733 -0.101913705 -0.11134146 -0.009741737

fc1.bias f4 [120]
000000 23 43 24 be 41 55 d9 3d c7 e4 66 be 39 ca e3 bd
       -0.16041236 0.10611964 -0.22548209 -0.11122555
000010 be 16 a9 bd e1 4a c5 3e 3d 68 5a bc 99 22 b0 bd
       -0.08256291 0.3853369 -0.013330516 -0.08600349
000020 e0 2f 2f 3e cb f9 d3 3d 79 4c 28 3e 94 be 0b be
       0.17108107 0.103503786 0.16435422 -0.13646919
000030 22 c7 ff 3e 46 bd dc 3b a8 65 b8 bd 87 bf ae 3d
       0.49956614 0.0067364303 -0.090037644 0.08532625
000040 13 89 51 3e 06 dc b9 3e 97 69 c0 bc 20 b4 1b 3e
       0.20462446 0.36300677 -0.02348785 0.15205431
000050 c0 64 b1 3b d5 98 0c bd 8f c1 8f 3e 04 5c 8a bd
       0.0054136217 -0.03432544 0.2807736 -0.06755832
000060 31 54 90 bc ee 5a 85 bd ed 76 43 be dd 52 15 be
       -0.01761827 -0.06511484 -0.19088335 -0.14582391
000070 ac 52 32 3e 28 93 26 be d8 cb a4 bc 3d c8 8c 3e
       0.1741435 -0.16267073 -0.020116732 0.2749652
000080 84 a8 e8 3c fd 18 03 be 86 e0 c4 be d3 a0 47 3e
       0.028400667 -0.12802501 -0.38452548 0.19494943
000090 97 64 9a 3d 75 69 c6 bc f7 d4 a5 3e 26 b4 a3 3c
       0.07538717 -0.024220208 0.32389042 0.019983362
0000a0 a6 3f b2 bd 05 b6 55 3d 70 e7 1c be 11 e0 59 3e
       -0.08703546 0.05217554 -0.15322661 0.21276881
0000b0 7d d2 a8 3c 84 1f df bc c1 25 50 3d ee fd 09 3e
       0.020608181 -0.027236708 0.050817255 0.13475773
0000c0 39 82 41 bd e9 ca 7d bd 42 c0 36 be 37 bb 37 3d
       -0.04724333 -0.06196109 -0.17846778 0.044856276
0000d0 0e f9 a6 3e 9a 49 40 3e 67 76 93 3d be 7a 2a 3e
       0.3261189 0.18778077 0.07200318 0.16648385
0000e0 40 54 a7 3c 35 8e a0 3d 40 e1 2e be ed 5f 90 3e
       0.020425916 0.07839624 -0.17078114 0.28198186
0000f0 50 46 7a 3e 42 86 9a 3e 9b cc a7 bd ec 15 21 bc
       0.24440885 0.30180556 -0.08193322 -0.009831887
000100 22 5f be bb 28 a5 55 3e 23 55 89 3d f9 2a 8a be
       -0.0058096806 0.20863783 0.06705692 -0.2698591
000110 d9 e4 75 be 1e fe ec bc 88 08 a9 bc 1a bc 02 bd
       -0.2401308 -0.028929766 -0.02063395 -0.03191767
000120 82 1d 6d 3c dc 67 9d 3e f0 d9 4f bd f9 d4 fa 3d
       0.014472367 0.307433 -0.05074495 0.122476526
000130 16 23 c9 bd 73 02 c9 3d d8 a6 39 bd 33 37 5f 3d
       -0.09821145 0.0981492 -0.04532513 0.054496
000140 9a 3a 60 bd 75 9e f5 bd b3 0e 46 3d 27 e5 93 bc
       -0.054743387 -0.11993114 0.048353862 -0.018053604
000150 27 cf 33 bd c5 7a 83 3e fb 51 d8 3d fb c8 5d 3e
       -0.043898728 0.25679603 0.105625115 0.21658699
000160 28 00 e0 3d c1 84 b6 3d ce b3 e9 3c a2 41 81 bd
       0.1093753 0.089120395 0.02852812 -0.063113466
000170 d6 42 3b bc c9 88 97 bd 82 ec aa bd 9e 93 62 bd
       -0.011429509 -0.073991366 -0.083458915 -0.05531656
000180 36 8a ae 3e 78 eb 72 3e 6e 41 2b be 7e b7 c3 3c
       0.34089822 0.23722637 -0.16724178 0.023891207
000190 c8 6c 4c be 69 88 07 bd 6e 85 04 3e 0e 50 99 bc
       -0.19963372 -0.033089075 0.12941524 -0.01871493
0001a0 1b 8d a1 3d 5c 84 30 bd f2 be 2f be d3 a1 46 3e
       0.07888242 -0.043094978 -0.17162684 0.19397669
0001b0 6c 84 03 3e b7 6a 50 3d ee 99 c5 be ac e8 b9 bd
       0.12843484 0.05088302 -0.38594002 -0.09077582
0001c0 c5 d8 8a bd c4 de 65 3e b4 95 a7 3e 2d 66 ff bb
       -0.06779627 0.2244826 0.32731402 -0.0077941627
0001d0 e4 1e a6 3d 85 7a b2 bd e2 cf 73 3e 2d 5f 97 be
       0.08111361 -0.08714775 0.2380977 -0.295648

fc2.weight f4 [84, 120]
000000 46 b9 09 be 51 c1 86 3c 3f 26 ca 3b 4e 2e ad bc
       -0.13449582 0.016449602 0.00616911 -0.021140244
000010 a5 ce f7 3d af 2f 90 bc 07 44 84 be 31 a8 02 bd
       0.12099961 -0.017600862 -0.2583315 -0.03189868
000020 81 4b 18 3d 40 9f 80 bd a5 3e ea bd b5 3a c3 bd
       0.03718138 -0.062803745 -0.1143773 -0.09532682
000030 37 1d 24 be 71 85 71 3d f0 5b a3 bd cd d9 3c 3e
       -0.1602677 0.05896515 -0.0797652 0.1844246
000040 7e f4 ec bd fa 88 d4 bc f7 e9 80 3c 96 a1 23 be
       -0.11570071 -0.025944222 0.015736563 -0.15979609
000050 f4 bb 86 3d d0 97 cb bd 71 f3 50 3d b1 dd 6e 3d
       0.06578818 -0.09941065 0.051013414 0.05831689
000060 25 46 f0 3b 7e b4 b8 bd 3b 4a ef bc 19 bc 68 be
       0.0073325806 -0.09018801 -0.0292102 -0.22728004
000070 5a aa a0 3d f2 1d 91 3d 11 44 aa 3d 94 ee 5a 3e
       0.07844992 0.0708579 0.08313764 0.21380073
000080 4f 93 ba bc 8b d0 ca 39 66 72 e5 bc a2 4c 1e be
       -0.02277532 0.0003868382 -0.028008651 -0.1545892
000090 0e 18 b4 3d fe 45 c1 bb 48 f8 16 be 28 1e 9b 3d
       0.087936506 -0.0058982363 -0.1474315 0.07574111
0000a0 c2 3c f8 3c 22 1a 61 bd ab e9 02 3e 16 49 85 be
       0.03030241 -0.054956563 0.1278445 -0.26032323
0000b0 6d 89 2c 3e b9 ab 83 3c f2 8c 9e bc bf 37 5b 3d
       0.16849299 0.016073095 -0.019354317 0.05351996
0000c0 50 84 eb 3a 25 ce 2a be 1f ae 87 bd fa 90 8b 3d
       0.0017968509 -0.166802 -0.06625008 0.068147615
0000d0 92 d7 f3 3b 27 59 97 3d e6 ec f0 3b 65 90 10 3d
       0.0074414695 0.07390051 0.0073524592 0.035293955
0000e0 ed 1c 86 3d cd 68 6c bd ea fd e4 bd bc fc d0 bc
       0.06548486 -0.057717133 -0.11181243 -0.025511138
0000f0 eb 6a c8 3d 2b 00 16 3e 2b c3 4a be 2b b2 10 3e
       0.09786018 0.14648502 -0.19801013 0.14130466
000100 9a 95 53 bd 57 9e 01 be 60 95 32 3d 2e bb 51 bd
       -0.051656343 -0.12658058 0.043599486 -0.0512039
000110 6f 6e c5 bd f4 0a 60 bd a1 ca ad bd 9f fd bf bd
       -0.09640204 -0.054697946 -0.08485914 -0.09374546
000120 6a 3a bc bc 5e 8b c8 bd ca 67 72 bd 29 31 ae bd
       -0.022977073 -0.09792207 -0.059181012 -0.0850547
000130 b8 7f 68 bd 08 a9 48 bd d2 f5 a7 bb 06 80 2b bc
       -0.056762427 -0.048989326 -0.0051257396 -0.010467535
000140 3a 0b c4 bd d0 7a 93 3b a1 76 3a be 9a 9b 61 be
       -0.09572454 0.0045007244 -0.18209316 -0.22032014
000150 c7 d5 c0 bd 6f 73 38 bd 1e 76 ef bd 92 0a 00 3e
       -0.09415775 -0.04503196 -0.11692451 0.12504032
000160 40 ab 15 bd 06 0f 07 bd 87 a7 7c bd ec d9 ff b9
       -0.03654027 -0.03297331 -0.061683204 -0.00048799755
000170 4f 21 f0 bc b4 9f ee bc 91 97 0f 3e 1f b6 22 bd
       -0.029312758 -0.029128887 0.14022662 -0.039724465
000180 88 64 de bd e0 23 3d be e3 02 e6 bd 9a bf cb bc
       -0.108590186 -0.18470716 -0.11231019 -0.024871636
000190 d3 db 58 be 5c 2b d5 3c eb 32 d3 bd ff 49 a2 bd
       -0.21177606 0.026021652 -0.10312446 -0.0792427
0001a0 0b 3e 57 bb f0 34 60 be 24 e0 e8 3c 81 57 4d 3e
       -0.0032843377 -0.21895194 0.028427191 0.20052911
0001b0 5f 8c 5a be 05 8e 13 3d 84 20 3d be ea cd a8 3d
       -0.2134261 0.036024112 -0.18469435 0.082424
0001c0 86 f6 c0 bb f7 fc 72 3e bd 0e c8 3d 21 d4 e2 3d
       -0.005888763 0.23729311 0.09768436 0.11075617
0001d0 04 26 9f 3d ae 4b b4 bd b5 86 24 3c 34 0a 25 be
       0.07770923 -0.08803497 0.010041882 -0.16117173
0001e0 ca d9 d5 3d 2a ae 0a 3e 3c 6b 4f be 3b 78 0c be
       0.104419306 0.13543001 -0.2025575 -0.1371774
0001f0 76 50 5e be f9 64 1b be c6 a0 02 be 3d 5e 01 bd
       -0.21710381 -0.15175237 -0.12756643 -0.031584013
000200 ba 88 63 bc 54 fd 00 3e c8 c0 fa bd 01 e5 11 be
       -0.013887579 0.12596637 -0.12243801 -0.14247514
000210 0a 0c 90 bb 7a 64 40 bd ca 53 24 bd 7f bd 3a bd
       -0.0043959664 -0.046970822 -0.04011897 -0.045590874
000220 21 6f 33 be d9 ae 02 3e e2 a6 6b bd 02 38 38 3d
       -0.17522861 0.12762012 -0.0575322 0.04497529
000230 61 6c 1d be 13 46 90 3c 16 66 04 3e db 36 14 3d
       -0.15373375 0.017611539 0.12929568 0.036185127
000240 7b dd 97 bd 6b 43 55 3d ff a9 27 be 2e 73 9f 3d
       -0.07415291 0.052066248 -0.16373442 0.07785641
000250 47 e9 18 3e 9a 83 d4 bd cf 2e 60 3b e0 b1 7f 3e
       0.14932738 -0.103766635 0.0034207588 0.24970198
000260 e0 4e a1 bd e8 a3 6b 3d 77 d0 1c be c9 40 93 3e
       -0.07876372 0.05752936 -0.15313898 0.28760365
000270 27 83 fd bd c1 00 37 3d 65 25 bb bd e2 14 1e 3b
       -0.12378531 0.044678453 -0.09137992 0.0024121334
000280 b7 01 05 3d 9d 89 2c 3d 18 79 f3 bd 1f e9 07 bd
       0.03247234 0.042123426 -0.11888331 -0.033181306
000290 e8 7b 57 bd d1 fc 29 be 54 e5 11 be bc 05 e5 3a
       -0.0526084 -0.16600348 -0.14247638 0.0017473022
0002a0 ce cb 35 3b 39 69 44 bd c6 ed cc 3d 0a 9f 9c 3d
       0.0027739885 -0.04795191 0.10006289 0.07647522
0002b0 21 92 ce bd 56 63 0c be 47 50 e4 3d ac dd 80 3e
       -0.100864656 -0.13709769 0.11148124 0.25169122
0002c0 b6 8a a7 bc e7 53 27 be a7 80 f9 3d 07 d6 9a 3d
       -0.020451885 -0.163406 0.121827416 0.07560354
0002d0 cb 00 0d bd 28 8b 90 3d d6 97 c7 bd 40 6a ea bd
       -0.034424584 0.07057792 -0.09745757 -0.11446047
0002e0 11 4f 38 bd f4 94 9b 3d 65 65 48 bd ef 24 2a be
       -0.04499728 0.0759677 -0.048924822 -0.16615652
0002f0 33 35 8f bd be 8a a5 3d 9d 0b af bd 01 7c 25 3d
       -0.06992569 0.080831036 -0.08547137 0.040401462
000300 3a 2b a6 bd 7a b1 c7 bd 22 37 84 bc 3f 2a b7 3c
       -0.081137136 -0.09750648 -0.01613957 0.022359012
000310 55 bd 50 bd 8c de 82 3d 9d 00 3d be 03 f8 05 3d
       -0.05096181 0.06390104 -0.18457265 0.032707226
000320 10 85 cf 3c e4 2e 21 3d 96 23 c7 bd 04 61 9a 3d
       0.025332004 0.03935136 -0.09723584 0.075380355
000330 34 dc 99 3d 9b 42 81 3e a2 a4 cc bb 86 b3 41 3d
       0.075127035 0.25246128 -0.0062452117 0.047290348
000340 85 0c 0b bc 40 28 9e 3c 52 6e af bc 9b 5b 73 bd
       -0.008486872 0.019306302 -0.02141491 -0.059413534
000350 93 32 d5 bd e5 79 14 bd 58 bd ee bd 03 72 da bd
       -0.10410037 -0.03624906 -0.11657208 -0.10666277
000360 a9 9f 67 bd c4 21 8b 3d 65 8e b5 bd e2 d1 bc bd
       -0.05654875 0.0679355 -0.0886505 -0.092197195
000370 ba d7 4c 3d 4e ad df bd f5 27 d6 3b 7f 38 0f 3e
       0.05001042 -0.10921727 0.006535525 0.13986395
000380 dd 50 93 bb ef 5a 07 be d7 da 8f bd 9e 67 fc bc
       -0.0044957236 -0.13218282 -0.07024162 -0.030811127
000390 ec 56 e7 bc 93 6f b6 3a ba 77 44 3d 73 cb e6 3d
       -0.02823969 0.001391875 0.047965743 0.112692736
0003a0 94 86 86 3c c2 f0 1c bd 67 0e 0e bb 58 91 8e be
       0.016421594 -0.038315542 -0.0021676065 -0.27845263
0003b0 c2 88 08 3e e0 16 ed 3d 1e ca 3e bd 72 9d 23 bd
       0.13333419 0.11576629 -0.046579473 -0.039945073
0003c0 81 65 72 be b7 53 c0 bd ac 17 83 3d 06 5e 8b bd
       -0.23671533 -0.09390967 0.064009994 -0.06805043
0003d0 d5 07 16 be 24 cb 03 3e 2f 26 05 3e e7 2c 5a 3c
       -0.14651425 0.12870461 0.13002847 0.01331637
0003e0 e2 e5 80 bb 98 7f c4 bd 97 70 3a 3e 12 5f e8 bc
       -0.003933654 -0.09594649 0.18207012 -0.028365646
0003f0 6f 4c 33 bd 92 16 e9 bd ae 95 48 be e1 67 f4 bd
       -0.043774065 -0.11381258 -0.19588348 -0.11933876

fc2.bias f4 [84]
000000 0a 79 e1 3e 2a b3 d8 3d 1d e2 c2 3e cd b9 0b be
       0.44037658 0.10581048 0.38063136 -0.13645096
000010 50 80 1c bd 06 6c 94 3e 16 3d b8 3d c6 20 3d 3e
       -0.038208306 0.28988665 0.08996026 0.18469533
000020 96 62 97 3d 77 b3 31 3d 9a f6 ba 3e fb 75 b1 3d
       0.07391851 0.04338404 0.36516267 0.08665081
000030 b0 10 81 bd 39 93 1b 3f e2 42 3c 3b 21 bf 11 3f
       -0.06302011 0.6077152 0.0028726389 0.56932265
000040 37 f2 55 bc 30 5e 92 3e 21 ff 2a bd 4c 60 1e 3f
       -0.013058237 0.28587484 -0.041747216 0.6186569
000050 d2 16 6d bd 96 c5 83 3e 06 e4 88 3e d9 e0 4c 38
       -0.05788309 0.25736684 0.26736468 4.8846796e-05
000060 dd 35 a1 3d 68 cd 7f bd 93 07 47 3e 88 3b 09 be
       0.07871602 -0.06245175 0.19436483 -0.13401616
000070 9e ba 0c 3d c2 d8 8c 3e df fe 47 bd 18 58 93 3e
       0.03435766 0.27509123 -0.04882705 0.28778148
000080 7e 07 27 3f 20 e5 cc bc 93 ca a2 3e 9b d5 77 bd
       0.6524581 -0.025011599 0.31795177 -0.060506444
000090 a1 e2 16 3f d9 86 7a 3c 60 fb 0f 3f 89 b5 ce bc
       0.5893956 0.015290939 0.5624294 -0.025233047
0000a0 b2 6a 5a 3e 8a c5 19 3f 25 d5 47 3e b0 09 93 bd
       0.21329764 0.60067046 0.19514902 -0.07179582
0000b0 7d 0e 28 3f d2 a4 99 bd ad 1f 60 3e d8 0a f8 3a
       0.6564711 -0.0750214 0.21887083 0.001892413
0000c0 e0 10 d0 3e a4 c3 cd 3d 4d 4e c8 bc b1 fe 0d bc
       0.40637875 0.10047081 -0.0244514 -0.00866668
0000d0 16 61 12 3d 72 71 9d 3d f6 09 a6 bd af ff 23 bc
       0.03573712 0.076876536 -0.08107369 -0.01000969
0000e0 f5 82 2d 3e 12 b1 23 3f 10 33 b8 bd ed e5 1c 3f
       0.16944487 0.6394206 -0.089941144 0.6128834
0000f0 29 df 07 3f c9 10 33 3e 3c 10 d6 bd 04 0f af bd
       0.5307489 0.17486872 -0.10452315 -0.08547786
000100 c7 9f 87 3e 86 0e 76 bd 60 a1 0e be fa 1e d3 bd
       0.26489088 -0.060072444 -0.13928747 -0.10308643
000110 2f 49 20 3f f8 79 23 3c e1 bc 99 3e 07 4e 4b bc
       0.6261167 0.00997781 0.30026916 -0.01240874
000120 2d df 8f 3c 47 2b 9d 3b 91 10 97 3e 98 e4 e6 bc
       0.017562473 0.004796419 0.29504827 -0.028185174
000130 03 5f da 3d 81 7d 12 bd 5a 42 11 be f5 26 08 3e
       0.10662653 -0.03576422 -0.14185467 0.13296111
000140 a6 32 cd 3e a3 de b1 bd 98 eb ca bd ff dc 27 be
       0.40077704 -0.08685043 -0.09908217 -0.16392897

fc4.weight f4 [10, 84]
000000 7e 59 ac 3e c9 c1 3d be c1 97 97 bd e7 70 86 3e
       0.33662027 -0.18530954 -0.07401992 0.26258013
000010 4d 71 08 bd b1 ec 10 3e 5e 16 c2 bd 60 69 e7 3d
       -0.033311177 0.1415279 -0.094769225 0.112993956
000020 0b e8 1d 3d ef 7c 89 bd d9 b8 73 3e 0a b7 a5 bd
       0.03855137 -0.06713282 0.23800983 -0.080915526
000030 27 4a ec 3c fa ec b9 be 24 00 09 3b 8e 6d a8 3b
       0.028843952 -0.3631361 0.0020904625 0.005140013
000040 23 29 a1 3d d9 44 39 bd 20 13 f1 3d 74 a6 dc bd
       0.07869174 -0.045231674 0.11771226 -0.10773936
000050 47 aa 00 3e 38 43 13 be 2b be 5a 3e de 74 58 bc
       0.12564956 -0.1438111 0.21361606 -0.013211457
000060 04 37 9b bc f6 15 0c 3e f7 81 24 3e 2c 40 1e be
       -0.018947132 0.13680252 0.16065203 -0.15454167
000070 32 7c 68 3e 4d 79 eb 3c 39 96 39 3e 76 22 8a be
       0.22703627 0.028744364 0.18123712 -0.26979417
000080 a1 c7 0b be 0a 5d d3 bc 28 c8 0d 3e 74 c9 e1 3d
       -0.13650371 -0.0258012 0.13845885 0.11024752
000090 67 3d dd 3c c2 f0 ee 3d 6d 02 e2 3d 53 ad 2e 3e
       0.027006818 0.11667015 0.11035619 0.17058305
0000a0 93 fe 22 3e 5d 70 31 be 15 3d d2 bd 79 73 2e be
       0.15917425 -0.1732802 -0.10265557 -0.17036237
0000b0 65 3a 19 be 98 7e ba 3d 50 e0 b1 3c 56 a1 76 3e
       -0.14963682 0.09106177 0.021713406 0.24084982
0000c0 b2 67 87 3d 2a 74 ec 3d 24 4d 2a 3e 69 7e 43 bd
       0.06611575 0.11545594 0.1663099 -0.047727976
0000d0 9c 54 96 bd a9 4b 12 be a0 5a 73 3d 1c f7 b8 3d
       -0.07340357 -0.14286675 0.0594126 0.090315074
0000e0 36 54 94 bd fb a1 cb 3d 08 77 c5 bd 79 78 c3 bd
       -0.072426245 0.09943005 -0.09641844 -0.09544463
0000f0 4a 84 e7 be 6f 9e e8 bd a2 37 01 bd dd 31 a0 3d
       -0.45218116 -0.11358344 -0.031547196 0.07822011
000100 93 a1 62 3e 54 31 dc 3d 32 e3 69 3e 01 8e be 3d
       0.22131948 0.10751596 0.22840574 0.09304429
000110 be 8e 3a 3e 2e 47 3d 3e af a6 f3 3c 94 65 47 3d
       0.18218514 0.18484184 0.029742567 0.048680857
000120 20 4a 27 bd f4 c2 da bd f2 05 49 be fb 31 16 3e
       -0.040842175 -0.106817156 -0.19631174 0.14667504
000130 17 56 a3 3e 85 8a 1a 3d 4d e4 48 3e cd 8c 27 3e
       0.3190162 0.03772976 0.1961834 0.16362305
000140 0c 8f de bd ef 20 1c 3e ce 42 f2 3c 32 c7 3f 3e
       -0.10867128 0.15246938 0.02957287 0.1872833
000150 8f 8b 3f 3e c4 75 a3 bb 82 c5 ad 3d 25 03 8d bb
       0.18705581 -0.004988404 0.08484937 -0.0043033534
000160 b0 2a b7 3d d5 31 42 be 52 cb f6 bd 9c 21 3f be
       0.08943689 -0.18964322 -0.12050499 -0.18665165
000170 75 aa b6 bd 66 1a 19 3e 8f 25 66 3e 2e 11 13 be
       -0.08919231 0.14951476 0.22475265 -0.14362022
000180 41 20 d8 bd 65 b2 40 bd d0 69 06 bd cd fc a9 bd
       -0.10553027 -0.04704513 -0.032815754 -0.08300171
000190 7b d6 86 3e 7d 6d 20 be 9c 19 7f 3d 47 8c 74 be
       0.2633551 -0.15666766 0.062280282 -0.23881637
0001a0 ae 97 95 bd 7f 43 d0 bc 1f 66 87 3e 78 f5 9b bd
       -0.07304321 -0.02542281 0.264451 -0.07615179
0001b0 c9 03 d2 3e 77 c9 fd bd cd 93 f8 bd 3c b1 b7 3d
       0.41018513 -0.12391942 -0.12137566 0.08969352
0001c0 8f 08 4b 3d 8d 4e c5 bd 49 b2 1a be 11 48 13 be
       0.04956871 -0.09634123 -0.15107073 -0.1438296
0001d0 51 c9 34 be 66 1b b9 3e 7b d3 b2 3d e5 bc 8a be
       -0.17654921 0.36153716 0.08731743 -0.2709724
0001e0 5b ed 9f bd 98 55 be bd a2 95 94 be 14 4d ec 3c
       -0.07808944 -0.092936695 -0.2902041 0.028845347
0001f0 f6 d7 06 3e fc bf c1 be b3 00 71 3e a6 17 96 bd
       0.1316832 -0.37841785 0.23535423 -0.07328729
000200 a9 f6 c0 be 8e c8 b2 bd 13 e4 80 bd 2a 45 24 bd
       -0.37688187 -0.08729659 -0.06293502 -0.040105022
000210 f2 5d 73 3d 86 04 90 3e 9b e2 82 3e 8b dd 22 3e
       0.059415765 0.2812845 0.2556351 0.15904824
000220 d3 64 0e be da a7 8c 3d 41 5c 70 bc 6e 49 b6 3a
       -0.13905649 0.06867953 -0.014670433 0.0013907382
000230 77 22 85 3e e8 bd bf be 01 b9 33 bd 25 0f 8b bb
       0.26002857 -0.37449574 -0.043877605 -0.0042437487
000240 be de 2b 3d f7 b8 94 be 8e 38 3a 3e 64 9d 2b 3e
       0.04196047 -0.29047367 0.18185636 0.16759259
000250 e9 9a 99 3e f9 85 eb 3c fd ef a0 bc 05 d9 65 3e
       0.30001 0.028750407 -0.019645685 0.22446068
000260 75 ab 32 be 5d a7 07 bd b2 1d 02 be 60 90 81 3d
       -0.17448218 -0.033118594 -0.1270664 0.063263655
000270 71 46 40 3d 3d bd 74 3e 7d d5 4c 3e 78 0d 3e be
       0.04694218 0.23900314 0.20003314 -0.18559825
000280 72 c4 55 3e a0 ff b6 bd 8a 17 15 3e 08 74 9a be
       0.20875719 -0.08935475 0.1455976 -0.3016665
000290 f3 9c 3b 3e 28 de 3c 3e 96 5b 03 bc b3 de f8 bb
       0.1832159 0.18444121 -0.008017441 -0.007594907
0002a0 f2 22 0d bd 5e 21 8c bd 39 c1 f3 3d 6f f5 1c 3e
       -0.034457155 -0.06842302 0.11902089 0.15328
0002b0 87 32 98 bd 85 79 33 bc e0 d2 0c 3e 56 f3 37 3d
       -0.07431512 -0.0109542655 0.13752317 0.044909798
0002c0 af 2c 7d 3e 54 1f 09 3e d7 06 24 be 5d 2a c6 bb
       0.24724077 0.13390857 -0.16018234 -0.0060475306
0002d0 d7 14 e9 3d bb b0 6c 3e e2 c5 ae bd 60 be 85 bd
       0.11380928 0.23114292 -0.08533837 -0.06530452
0002e0 c1 b6 bb 3d 10 ff 24 be f8 5d c0 3b 8b 5b 0b 3e
       0.09165717 -0.16112924 0.005870577 0.1360914
0002f0 f5 40 50 3e ba 17 83 bd 24 4b c1 3d 76 34 50 be
       0.20337279 -0.0640101 0.0943816 -0.20332512
000300 9f 41 1c be 96 3e 58 3e e0 28 5f be ce 48 c1 3c
       -0.15259407 0.21117625 -0.21792936 0.023594286
000310 38 3e fc bd a4 95 93 3d 5a 67 5b 3e c9 e0 d2 3d
       -0.12316555 0.07206276 0.21426144 0.102967806
000320 30 6c aa bd 94 d3 fc bd 70 5b 16 bd f9 de 14 3e
       -0.083214164 -0.12345043 -0.036708295 0.14538182
000330 69 12 71 bd fe 96 16 3e 96 75 a1 3e 18 3a 99 3d
       -0.058855448 0.14706036 0.31535023 0.07481784
000340 83 f9 b0 bc 1b a3 99 3e d9 ae 0d 3d 05 fb 0b bd
       -0.021603351 0.30007252 0.034590576 -0.034174938
000350 a7 4a 0e 3e 5d 98 b7 3e 93 ab 48 bd 7e 7d 21 3e
       0.13895665 0.3585843 -0.04899175 0.15770528
000360 80 1c 4a bd 8e 84 71 be cf 17 12 3d 59 ca 39 3d
       -0.049343586 -0.23585722 0.035667237 0.04535899
000370 7a c8 fb 3d cf ed e3 3c 43 37 51 3e d8 7e 3b 3e
       0.12294097 0.027823357 0.20431237 0.18310106
000380 f9 b7 08 bd 47 85 03 3e 56 41 03 bc 64 2f af 3c
       -0.033378575 0.1284381 -0.008011183 0.021384902
000390 2d 34 0c 3e c1 6a 0f 3e a8 43 1a 3e 44 d2 85 3d
       0.13691778 0.14005567 0.15064871 0.065342456
0003a0 e4 ec 13 3e 0a 56 44 3e b3 06 4a bd 72 60 f1 3c
       0.14445835 0.19173446 -0.049322795 0.029464934
0003b0 a3 d5 19 bd a4 62 d1 bd b2 6d 37 3e 76 f3 28 be
       -0.037557255 -0.10223892 0.17912939 -0.16499123
0003c0 a6 fc b0 bd b5 93 40 3e ca 48 80 be f1 3c 15 3e
       -0.08641939 0.18806346 -0.25055534 0.14574029
0003d0 2f 29 1f be de 81 1d be e8 7f bb 3d ff ff fa 3d
       -0.15543054 -0.15381572 0.091552556 0.12255859
0003e0 c0 17 67 3d 40 56 86 be 19 9a 88 bc d0 70 8e 3d
       0.056419134 -0.2623768 -0.016675042 0.06955111
0003f0 36 51 8a be f7 01 29 3e d0 c7 0b be 70 a7 5f bd
       -0.27015084 0.16504656 -0.13650441 -0.05460304

fc4.bias f4 [10]
000000 d2 f6 ba be cc 71 7a bf dd 2c 93 be 74 6c 1a 3f
       -0.36516434 -0.9782989 -0.28745165 0.60321736
000010 29 51 45 3f b9 86 31 bd bf 09 ac 3d 72 01 2f be
       0.77076966 -0.043341372 0.084002964 -0.17090395
000020 a4 54 eb 3e ae ad 8b be
       0.45963013 -0.27280945
