Convolutional_NN/model/cifar_net2.pth (torch_old, 677025 bytes, 10 tensors)

conv1.weight f4 [6, 3, 5, 5]
000000 b8 a5 3d be 86 46 74 bd a9 f1 0e be 95 cb 3f be
       -0.18520248 -0.05963757 -0.13959374 -0.18730004
000010 3b e1 96 bd b3 b7 7a 3c be 5c c8 bd 0f bd 17 be
       -0.07367178 0.015302586 -0.09783314 -0.14818214
000020 d8 5a da 3c be 48 bb bd 79 e7 00 be 10 7f 83 3a
       0.026654646 -0.09144734 -0.125883 0.0010032374
000030 03 52 e7 bc 26 32 fb bb 20 50 82 bc 6d 6a 7b be
       -0.028237348 -0.0076658903 -0.015907347 -0.24552317
000040 c9 8e dc bd af ce d1 bd 88 94 9d 3d b6 f0 da 3b
       -0.107694216 -0.102445 0.07694346 0.006681527
000050 56 b9 3f be 65 3d c2 bd 9f 2f 25 be 18 1b 11 be
       -0.18723044 -0.09484366 -0.16131447 -0.14170492
000060 ad 50 0e be 40 87 2b 3d e8 b5 76 bd f5 42 64 bd
       -0.13897963 0.04187703 -0.060232073 -0.055727918
000070 41 e8 8e bc 9f 90 e0 bd 32 4a 2e 3e 4e 8e 9f 3d
       -0.017444732 -0.10965084 0.17020491 0.07790814
000080 f1 dc 38 3e dc 69 8c 3d cf 40 da 3c c6 07 5c 3e
       0.18053032 0.068561286 0.026642231 0.2148734
000090 10 5c 51 3e 34 ad 1c 3e ef ac 70 3e 6e b1 75 3e
       0.20445275 0.15300447 0.23503469 0.23993465
0000a0 da da b3 3d 64 ae 63 3d 12 8b 0e 3e 35 54 ab 3e
       0.08781977 0.055586234 0.13920239 0.33462682
0000b0 b8 c9 39 3e ab d0 0d 3e 72 01 15 3e ee d5 8e 3e
       0.18143356 0.13849132 0.14551333 0.2789759
0000c0 c1 8c 74 3e eb 4b a3 3d 45 6b 32 be 83 3f 31 be
       0.23881818 0.079734646 -0.17423733 -0.17309384
0000d0 7c 69 44 be 27 7f 44 be da 86 cd be 21 55 90 bd
       -0.19180864 -0.1918913 -0.40141946 -0.07047487
0000e0 72 6f f9 bd 69 52 15 be 6c 3b 47 be e1 fa 50 3a
       -0.1217946 -0.14582218 -0.19456261 0.0007971954
0000f0 3b 6d fa 3d ee ed b3 bc c2 88 a4 bd e8 71 aa 3d
       0.12227865 -0.02196404 -0.08033897 0.08322507
000100 01 2e c5 3d d6 eb af 3d 30 65 58 3d 0b 88 eb 3d
       0.09627915 0.08589904 0.052830875 0.115005575
000110 6e fc e9 3d 24 98 72 3e d5 a1 73 3e b1 2d 2d 3e
       0.114251 0.2369085 0.23792203 0.16911961
000120 96 a0 95 3e 25 08 88 3e 93 57 78 3e be f2 28 3e
       0.2922408 0.26568714 0.24252157 0.16498849
000130 10 95 52 3e 34 82 83 3e 0e e2 71 3d 98 06 3d bd
       0.20564675 0.25685275 0.059053473 -0.046148866
000140 37 32 0f be c4 fe 2d 3e 8f cc 62 3e 04 d3 9b 3e
       -0.13983999 0.16991717 0.22148345 0.3043443
000150 f6 b4 f5 3c 70 82 44 3b 9d b1 93 bd f6 c9 36 3d
       0.029993515 0.0029984973 -0.072116114 0.0446262
000160 c3 35 e1 3d 9d 8b 1a 3e b0 09 b9 3d ef a1 a6 bd
       0.10996582 0.1509232 0.09035051 -0.08136355
000170 90 e2 35 be 3c 65 cb bd de 51 53 3e 52 8a ed 3d
       -0.17762208 -0.09931418 0.20636699 0.11598648
000180 e7 78 36 3d 45 e4 1c bd 2d dc 0a be e8 bf 7d 3d
       0.044548895 -0.038303632 -0.13560553 0.061950594
000190 7c 00 5e 3e 40 ef c5 3e eb 03 cb 3e 5a 6f 56 3c
       0.21679872 0.38659096 0.39651427 0.013088072
0001a0 d1 9c 1c bc 9e 30 e7 bd 33 3b a1 3b bd ab 73 3e
       -0.009558872 -0.1128857 0.004920387 0.23795982
0001b0 0c ec b6 3e e0 64 c9 3d 6a 1a 84 bd 2d 73 f7 bd
       0.35726964 0.098336935 -0.064503506 -0.12082515
0001c0 2f 67 4f bd eb 87 9d 3e ed 1a 6b 3e 85 51 ca 3b
       -0.050635513 0.3076776 0.2295949 0.0061742687
0001d0 05 d0 60 be ad de 27 be 43 20 ca bc a9 df e9 3d
       -0.21954353 -0.16393538 -0.024673587 0.11419613
0001e0 8c 48 b8 bd 6b 39 5d be 81 fd 98 be e9 3e 9b be
       -0.08998212 -0.21603934 -0.29880908 -0.30321434
0001f0 b5 e8 e4 bc 80 d0 7b bc 2d a0 6e 3e d4 c6 94 3e
       -0.027942995 -0.0153695345 0.2330329 0.29057944
000200 c4 8d e8 3c f1 a5 2b be e2 9a 18 be bb 3b 24 bd
       0.028387912 -0.1676252 -0.14902833 -0.040096026
000210 15 bd 9f 3e 8b ac 97 3e 1d 52 14 3e d1 2e f4 bd
       0.31198946 0.29623827 0.14484449 -0.11922992
000220 bd 16 06 be 0f 97 27 be bc 9f ce 3c 14 66 3f 3e
       -0.13094611 -0.16366218 0.025222652 0.18691283
000230 f0 a4 59 3c 73 4b f7 bd d5 31 38 be 0c 6f 7d 3c
       0.013283953 -0.12074938 -0.1798776 0.01546837
000240 70 f1 d6 3d 84 af 8e 3d 24 ad ff bd 1c ca db bd
       0.10495269 0.06967071 -0.12484196 -0.10731909
000250 15 1c 4c be 8c d1 2b be 86 9d e4 bb 10 34 2a be
       -0.19932587 -0.16779155 -0.006976786 -0.16621423
000260 4b 61 da bd 5a 9b 7e 3e c1 c5 27 3e 1e b6 1f be
       -0.106630884 0.2486395 0.16384031 -0.15596816
000270 a8 a2 0b bf c9 b2 d1 bd ed eb 01 3f bb a1 b2 3d
       -0.5454507 -0.10239179 0.5075062 0.08722254
000280 69 de a6 be 15 d5 11 bf e0 d9 b4 3e 29 69 2a 3f
       -0.3259156 -0.5696576 0.35322475 0.6656671
000290 2d cc 3e be 32 3f 4c be dd 43 c6 be 26 f0 08 3f
       -0.18632574 -0.19945982 -0.3872365 0.5349144
0002a0 82 44 f9 3e d6 5e fe be 20 3a 74 be 6c 42 aa bb
       0.4868508 -0.4968173 -0.23850298 -0.0051959064
0002b0 e8 6b c5 3e d9 fa ce 3d 4d 4a 2c bf 5c 64 e5 3e
       0.38558888 0.10106439 -0.67300874 0.4480313
0002c0 8b 49 26 bd eb 29 57 be ac f6 a7 3c 13 ee 4a bd
       -0.04059748 -0.21012084 0.020503365 -0.04954345
0002d0 e0 29 94 3e af 90 b5 be df 88 88 bc 16 ef 96 3e
       0.28938198 -0.35461947 -0.016666828 0.29479283
0002e0 c5 f7 09 be 66 9d ef 3d 10 21 ec be a1 d1 a5 3e
       -0.13473423 0.11699943 -0.46118975 0.32386497
0002f0 e6 c0 14 3f 8c 67 6d be 9b c8 ca 3d 85 75 7e bd
       0.5810684 -0.23184031 0.09901544 -0.062123794
000300 35 69 e4 3e 6f fc ff 3e 8a d9 f9 be 0f 7f 17 3e
       0.44611517 0.4999728 -0.48798782 0.14794563
000310 19 72 81 3e a4 eb 10 3f d0 be 40 3e c6 4f 1a bf
       0.25282362 0.5660956 0.18822789 -0.60277975
000320 ee 36 8f 3e e8 07 5c be d4 0c c2 be aa 89 35 bd
       0.27971596 -0.21487391 -0.37900412 -0.04432074
000330 b1 66 91 bc 03 2a c1 3d 89 e2 09 bf 34 b5 71 be
       -0.017749162 0.09431841 -0.5386129 -0.2360428
000340 2a 3b e5 3e 80 89 8f 3d 2b 41 0c 3e d4 ee 1d bf
       0.447717 0.07008648 0.13696735 -0.6169255
000350 84 c3 33 3e 0b bb 06 3f 4b 91 25 be 28 5e 84 bd
       0.17555052 0.52629155 -0.16168706 -0.064632714
000360 16 2b 13 bf 69 d0 85 3e b4 49 12 3f f3 42 05 be
       -0.5748762 0.26135567 0.5714371 -0.1301382
000370 4f 4f 0d be 52 f8 ba be 07 5c 91 3e 11 9c 7d 3e
       -0.13799785 -0.36517578 0.28390524 0.24766566
000380 51 77 a1 be 08 8f 90 3e 80 56 04 3e 79 d9 f6 be
       -0.31536344 0.28234124 0.12923622 -0.48212793
000390 14 a9 8c be 89 b6 86 bb 15 7d 9f 3e ec 12 2b 3f
       -0.27472746 -0.0041111154 0.31150118 0.6682575
0003a0 41 3a c2 be 34 d2 31 bf 78 d9 83 be 96 73 9e 3d
       -0.3793507 -0.6946137 -0.25751853 0.0773689
0003b0 b5 b7 5a 3f d4 a1 d7 3e 49 ae b0 be ac d9 95 be
       0.85436565 0.42115653 -0.3450797 -0.29267633
0003c0 c1 65 76 be 09 90 01 3f 07 26 fe 3e a4 50 0f 3e
       -0.24062254 0.50610405 0.49638388 0.13995606
0003d0 00 30 71 be a5 26 67 be 65 53 04 3e e1 e3 ca 3e
       -0.23553467 -0.22573335 0.12922437 0.39626983
0003e0 4c b5 c0 3e 68 ed 26 3e 28 5a cd bd 8c 04 74 be
       0.3763832 0.16301501 -0.100269616 -0.2382986
0003f0 75 7f 0e bf 59 55 94 be f3 a4 bd 3e 49 1a eb 3d
       -0.55663234 -0.28971365 0.3703991 0.11479623

conv1.bias f4 [6]
000000 a7 75 c2 be c4 ce 91 be d3 a1 d8 be ce 8f 0e bf
       -0.37980387 -0.28478062 -0.42310962 -0.5568818
000010 d0 c9 fe be da f3 4e bf
       -0.49763346 -0.8084084

conv2.weight f4 [16, 6, 5, 5]
000000 d9 4f 17 be 63 28 c6 bd c7 06 b2 bc 3f cd 09 3e
       -0.14776553 -0.09675672 -0.021731747 0.13457201
000010 e2 ec a3 3d 4d 38 f0 bd a4 09 c1 bd 7d dc a0 3c
       0.08004166 -0.117294885 -0.09425667 0.019636387
000020 92 fc b1 3c 10 ac 73 3c e3 87 87 bd 82 47 74 bd
       0.02172688 0.014872566 -0.06617715 -0.059638508
000030 a8 4c 56 bb fd 7b 42 3d ca 56 94 3c 6c 51 19 be
       -0.00326995 0.047481526 0.01810779 -0.14972466
000040 cb 2b f8 bd 9a da 4c bd ac 67 07 be 91 ab b4 3d
       -0.12117728 -0.050013162 -0.13223141 0.08821786
000050 45 58 b0 bd cf 5f 3d be aa 4b 15 be 75 6b bd bd
       -0.08610586 -0.1849358 -0.14579645 -0.092490114
000060 bc 13 1f 3d c0 f3 1c bd f9 62 e7 bd 05 1a 86 bd
       0.03883718 -0.038318396 -0.112981744 -0.065479316
000070 0b d6 13 bd 85 ab a1 bd 8c a7 0d be 64 62 72 bd
       -0.0360928 -0.07894043 -0.13833445 -0.059175864
000080 d4 1c 10 3d b0 8b 9c 3d 11 e3 04 3e a5 99 79 be
       0.035183743 0.07643831 0.12977244 -0.24375017
000090 9e e1 d4 3d 70 b4 bf bc e0 43 ab 3d 8e 5e 93 3d
       0.103945956 -0.023401469 0.083625555 0.07195769
0000a0 01 79 95 be 9f 5e 17 be 3d b2 ac 3d 1e 67 90 3c
       -0.2919388 -0.14782189 0.08432434 0.017627295
0000b0 74 b4 09 3e 49 3a 75 be 00 f7 1a be 9a 8b 96 3d
       0.13447744 -0.23948015 -0.15133286 0.07350846
0000c0 f4 c5 06 3d 92 07 93 3d 5e 4a ea 3d a9 45 b8 3c
       0.032903627 0.07179178 0.11439966 0.022494154
0000d0 0c 87 1a bd 33 28 aa 3c 8e 58 c8 bc 5a 2c 3b 3d
       -0.037726447 0.020771122 -0.024456289 0.045696594
0000e0 16 7d 40 bd 36 30 e5 bd ab 51 a0 bd df 97 b8 bd
       -0.04699429 -0.11190836 -0.07828077 -0.09013342
0000f0 b7 1a ea bc 01 65 8a bd fc 9d 8c 3a 47 5b 52 3d
       -0.028577192 -0.06757546 0.0010728235 0.05135658
000100 3e 12 8a bd 59 b2 bd 3d e2 37 b2 3d 10 16 e7 3d
       -0.06741761 0.09262533 0.08702065 0.11283505
000110 6e c7 f4 3d 3a 8b 4c bd af 15 b4 bc de 71 c6 3d
       0.11952101 -0.049937464 -0.021982996 0.09689687
000120 b7 42 85 3d 76 bd 1a 3e 34 17 26 bd 32 48 14 be
       0.065068655 0.15111336 -0.040549472 -0.14480665
000130 aa f5 9b 3e e5 f8 47 3a 04 72 b2 bd 12 7d fe 3d
       0.30460864 0.0007628336 -0.08713153 0.12426199
000140 78 27 04 3d 0a 03 b6 3d e2 b7 18 3e 6a ab 3c be
       0.032264203 0.088872984 0.14913896 -0.18424764
000150 d7 64 41 bd 08 54 65 3d 64 a1 e4 bc c0 73 65 3e
       -0.04721531 0.05598834 -0.027908988 0.22407436
000160 e0 fc 03 3e 77 db 8c bd 3e 62 20 3e 3d 51 70 3d
       0.12889433 -0.06877797 0.15662476 0.058671225
000170 86 6f ca bd ce dc bb 3d df 1e 45 3d 0a f9 26 3e
       -0.09884553 0.091729745 0.048125144 0.16305938
000180 84 96 bb bd 83 3b 1e bc 5f 03 8a bd 97 64 25 3d
       -0.09159568 -0.009657743 -0.06738924 0.040379133
000190 73 5e c2 3d 1b 56 a9 3d 0e 05 9e 3d f3 79 0a 3b
       0.09490671 0.082683764 0.07715808 0.0021129816
0001a0 e1 57 b9 3c 7a 92 ec 3d c5 ac 08 be 6a 7d 4d be
       0.022624912 0.11551376 -0.13347156 -0.20067373
0001b0 59 88 48 be c8 76 54 bd ae 2c 1d be 8d 60 50 be
       -0.19583263 -0.05187109 -0.15349075 -0.20349331
0001c0 c4 a7 5b be 24 4d 46 be 61 42 d4 bd 04 c3 58 bc
       -0.21450716 -0.19365364 -0.10364223 -0.013230089
0001d0 34 02 3a be de 11 32 be 81 93 fa bd fb e2 2d 3d
       -0.18164903 -0.17389628 -0.122351654 0.042452794
0001e0 fb 74 d5 bc 5d 44 55 bc af cf 9f 3d 79 ae 7b bd
       -0.026056757 -0.013016787 0.078032844 -0.061445687
0001f0 0a 0e 5c bd 3b c4 40 3e 97 6e d7 bd 30 3f 8b be
       -0.053724326 0.18824856 -0.1051914 -0.27196646
000200 95 f2 9b be 52 19 82 be ff 24 6b 3d c1 a6 8a be
       -0.30458513 -0.25409943 0.05740833 -0.27080348
000210 4f 48 32 be 85 5c 52 be 73 27 5f be 23 cb a4 3e
       -0.17410396 -0.20543106 -0.21792392 0.3218623
000220 c8 5d 79 3d d3 a6 46 be a4 92 92 be 49 14 9a be
       0.060880452 -0.19399576 -0.28627503 -0.300936
000230 b1 14 e0 3e 7e 56 dd 3d 7a 44 47 bd b6 4c 75 be
       0.43765786 0.10807513 -0.04864929 -0.23955044
000240 e8 be 90 be 5c 12 8b 3e 4a 54 11 3e b6 a8 d1 bd
       -0.2827065 0.27162445 0.1419231 -0.10237257
000250 9b 7d 15 be 84 64 51 be 06 1c 22 be 48 44 dc bd
       -0.14598696 -0.204485 -0.15831003 -0.10755211
000260 42 3d 05 be 94 0c 1e bc d2 d9 03 bd 69 b0 76 bc
       -0.13011649 -0.009646554 -0.03219015 -0.015056708
000270 86 6f 6c 3b 68 02 87 bd ff f3 0f bc 0a 2e 09 be
       0.0036077215 -0.06592256 -0.008786201 -0.13396469
000280 14 e5 4f bd 20 cd 90 bc 19 bd 57 bd 17 63 20 3c
       -0.050755575 -0.017675936 -0.052670572 0.00978925
000290 0f 4f fd bd 9f 5b 97 bd fb 65 95 3c 52 9e ad 3b
       -0.12368595 -0.07390522 0.018237105 0.0052984143
0002a0 91 20 f8 bd a5 46 2a be eb 49 9e bc 98 ab 8c bd
       -0.121155865 -0.16628511 -0.019322356 -0.068686664
0002b0 9d 49 c2 bd ad 67 8b bc 6d 36 75 bd 90 ef 30 be
       -0.09486697 -0.01701721 -0.059866358 -0.17278886
0002c0 44 82 da bd 2d 5e 0a be 8c 31 39 bd 42 39 5b bd
       -0.106693774 -0.13512488 -0.045213267 -0.053521402
0002d0 0a f5 3a bd b8 2e f4 bd cd c2 0e be 1c 4f d6 bd
       -0.045643844 -0.119229734 -0.13941498 -0.10464308
0002e0 6d 18 12 3d a1 78 a2 3d e7 e8 df 3d ad 0f 93 3d
       0.035667825 0.079331644 0.109330945 0.07180724
0002f0 db b0 a2 3b 50 25 3c bd 7b b0 28 3d de 55 97 3e
       0.0049649305 -0.04593402 0.04118393 0.295577
000300 08 62 28 3e e8 e0 80 3d 83 77 8c bd 94 f5 af 3d
       0.16443646 0.062928975 -0.068587326 0.08591762
000310 e4 bb 11 3d 43 f3 d8 3d e8 f1 ac bd 2b 74 2b be
       0.035579577 0.105932735 -0.084445775 -0.16743533
000320 6e ff 8e bd ba f5 a3 3a de 4c 34 be 92 f2 4f be
       -0.06982313 0.0012509145 -0.17607448 -0.20307377
000330 6c d0 0f be 0e b6 04 bd cf b6 76 3d c9 79 ce bd
       -0.1404435 -0.032400183 0.060232934 -0.100818224
000340 73 a2 f4 3c 34 40 30 be c4 79 e2 bd ee 62 76 bd
       0.029862618 -0.17211992 -0.11058381 -0.06015294
000350 a5 27 0a 3d 6d fe 0d 3e ca 16 5a 3c ce 10 05 be
       0.033729214 0.13866587 0.013311097 -0.12994692
000360 c4 d5 30 bd 77 a9 52 3b b1 e4 e9 3c a9 50 04 3e
       -0.043172613 0.0032144466 0.028551431 0.12921394
000370 6e 4b 4b bd 07 4d 0d be 33 b7 6c 3d f4 f0 cf 3d
       -0.049632482 -0.13798915 0.0577919 0.1015338
000380 43 4f 8b 3e 5c 87 06 be 08 bf a2 be 5c 83 0d 3d
       0.2720891 -0.13137573 -0.3178637 0.034549102
000390 1e 2b 62 3d 37 ba f0 bd cc 58 c5 bd e2 e4 61 be
       0.0552169 -0.11754268 -0.09636077 -0.22059968
0003a0 16 a2 22 bd cf 34 c3 3d 9e 83 d7 bb 36 c3 0a 3d
       -0.03970536 0.09531557 -0.0065769693 0.033877574
0003b0 c7 bd 33 be 61 06 d9 3c c2 e4 d5 3c c8 cd 39 be
       -0.17552863 0.0264923 0.026110057 -0.18144906
0003c0 8b 8d 12 3d ac c0 8d bd 1e 33 8e bd 99 e3 62 be
       0.035779517 -0.06921515 -0.069433436 -0.22157134
0003d0 18 97 07 be 90 74 03 3e ef 3b f6 bd e4 b3 95 bd
       -0.13241231 0.12837434 -0.1202315 -0.07309702
0003e0 ca 70 24 be a7 b4 7b bc 44 a5 2c 3d e6 c8 58 bd
       -0.1605865 -0.015362895 0.042149797 -0.052925967
0003f0 02 28 52 be 12 f5 81 be 13 11 84 be 9a d5 04 bd
       -0.20523074 -0.25382286 -0.25794277 -0.03243027

conv2.bias f4 [16]
000000 e7 3d c7 3d 2e 4b f7 bc 99 e0 37 bf 13 46 ef be
       0.09728604 -0.030187216 -0.71827084 -0.4673315
000010 55 62 1d 3e 12 d3 9d bf cd 5d 85 bd 53 f8 82 be
       0.15369542 -1.2330039 -0.06512032 -0.2558008
000020 e9 b9 11 bf 04 ec ea bd a5 b3 81 3e 9b e0 4f 3e
       -0.569243 -0.11470798 0.2533237 0.20300524
000030 8d d3 31 ba 82 74 3a 3e 0b ac dc bd 59 70 96 be
       -0.00067835377 0.18208507 -0.10775002 -0.2938259

fc1.weight f4 [120, 1296]
000000 0f 51 d0 bc f3 e2 05 bc 86 b0 e9 b9 d0 f6 c2 bc
       -0.025429277 -0.008171785 -0.00044572743 -0.02379933
000010 d9 d9 76 3c ce 14 0e 3c a7 aa f6 3c 41 65 8d 3b
       0.015066587 0.008671952 0.03011067 0.004315049
000020 38 77 b1 3c 30 28 f7 b9 98 d0 b3 3c 8a cc 83 bc
       0.021663293 -0.00047141453 0.021950051 -0.016088743
000030 a7 1d dd bc fb 72 a3 bb bd 91 f0 3c d4 40 95 bc
       -0.026991678 -0.004988072 0.029366368 -0.018219389
000040 43 ef 33 bc 5e cd d9 bc d2 f6 b7 bc ed 17 60 bc
       -0.010982337 -0.026587185 -0.02245656 -0.013677579
000050 57 c7 a8 bc 43 33 91 bc e9 d9 ec 3b 5c 02 ba bc
       -0.020602865 -0.017724639 0.0072281254 -0.022706203
000060 dc 66 db 3c 9c f8 8f bc a1 a8 47 3c fe 0b 78 bc
       0.026782446 -0.0175746 0.0121862 -0.015139578
000070 3c 7b 9a bc 66 58 89 3c cc 47 18 3d 24 9f 07 bd
       -0.01885759 0.016765784 0.037177846 -0.033110753
000080 ae d0 25 3c ab f7 88 3c f5 c2 ad bb 2b 89 2d 3b
       0.010120554 0.01671966 -0.0053027817 0.0026479464
000090 e8 2e 11 bd 43 c2 d0 3b 93 8e e5 3c d6 46 a9 3c
       -0.035445124 0.006370814 0.028022086 0.02066366
0000a0 4a 76 f0 3a 46 97 ff 3a 78 69 b9 3b 82 c2 e7 3c
       0.00183458 0.0019500039 0.005658325 0.02829099
0000b0 69 22 ed bb 89 28 86 3a df 59 16 bc 17 d8 15 3d
       -0.007236768 0.0010235469 -0.0091767 0.036583032
0000c0 85 cd 56 bb ef 47 17 bd 09 96 52 3c ed d1 41 bb
       -0.0032776308 -0.036933836 0.012853154 -0.0029574588
0000d0 db d0 53 3c 35 09 24 3d 6d dc 85 bc 3d dc ce 3b
       0.012928213 0.040047843 -0.016340459 0.0063128755
0000e0 af e9 b0 3c f5 16 76 bc 8b 4d 51 3b 4f 30 1f bd
       0.021595804 -0.015020122 0.0031937088 -0.03886443
0000f0 3f 54 cf bc 12 23 d6 bc 8c 09 d7 3c 23 b8 33 3c
       -0.025308726 -0.02613977 0.02624967 0.010969195
000100 f0 d7 c5 ba c2 61 9e 3c c9 f6 ec 3c 61 08 27 3a
       -0.0015094262 0.019333724 0.02892627 0.0006371793
000110 eb 81 46 bb b3 a6 0b bd 08 8f ae 3c 9f 69 cd 3c
       -0.003028984 -0.034094524 0.021308437 0.025074778
000120 a9 b1 08 bd a3 51 2c bc 1d 2a e8 bc f9 fd 30 bc
       -0.033372555 -0.010517511 -0.028340394 -0.010802739
000130 93 aa b4 3c fd fd bf bc 7b 50 ab 3c c5 eb e2 bc
       0.022053992 -0.02343654 0.0209124 -0.027700314
000140 6f b7 e8 3b 9a 7e ce bc 70 85 4d bd 8a 5c be bc
       0.007101945 -0.025206853 -0.050176084 -0.023237485
000150 e4 b4 13 bd d1 96 cb bc ce 8c 84 bb 28 58 b4 bc
       -0.036061183 -0.024852188 -0.0040451055 -0.022014692
000160 4f a4 94 3c ba ec ed 3c e5 d0 05 bd 47 3a 4d 3c
       0.018144755 0.029043544 -0.03266992 0.012526101
000170 16 d1 e4 bc d5 df 5f bc 18 19 19 bc 09 21 98 3b
       -0.027931731 -0.013664206 -0.009344362 0.00464261
000180 79 58 9e bb 7c fb a8 3c 05 cb d8 bc 94 31 e1 bb
       -0.004832324 0.02062773 -0.026463995 -0.0068723653
000190 f0 ad e0 bc 4b 73 a7 bb eb d3 92 3c 74 78 31 bb
       -0.02742669 -0.0051101795 0.017923316 -0.0027079852
0001a0 33 03 05 3d 09 40 3b 3c b2 0f 2f 3c d4 50 db bb
       0.032473754 0.011428841 0.010684894 -0.006692985
0001b0 b8 a6 9d bc 0d a0 21 bc 14 e4 5c 3c 8d ae 8b 3b
       -0.019244537 -0.009864819 0.013482112 0.0042627514
0001c0 f1 a9 58 3c 5e c5 c4 3c 87 9d 11 3d b8 c9 22 bc
       0.013224111 0.024019893 0.03555062 -0.009935789
0001d0 07 25 d9 bb ac a0 bd 3c bb c8 b6 bb e3 71 b3 3c
       -0.0066267285 0.023147903 -0.005578128 0.021904891
0001e0 9e c5 a1 bc 3b d2 33 bc e6 ae be 3b 05 e1 80 bc
       -0.019747552 -0.010975416 0.0058191894 -0.015732298
0001f0 da 0d e2 bb 4e fd 69 3c dd 3a 58 bb a2 f0 c2 3c
       -0.006898624 0.014281584 -0.003299407 0.023796383
000200 22 c8 89 bc 6c 1f e6 bc 0c c9 bd 3c 2e 44 ab 3c
       -0.016819064 -0.028091155 0.023167156 0.020906534
000210 37 34 de 3c 20 2d 2e bc ea 15 c0 bc 36 33 e1 bc
       0.027124507 -0.010630876 -0.02344795 -0.02749024
000220 1d 3e bf bb 8a 2c 93 bc ce 13 25 3c e8 1f 98 bc
       -0.005836262 -0.017965574 0.010075523 -0.018569902
000230 47 85 3c bc 1c 7d 92 bc 37 22 78 3b 3a 94 27 3c
       -0.011506385 -0.017881922 0.003786219 0.010228211
000240 1e 7a cd bc 66 80 87 bc 50 bf 43 bc 1e 01 91 3b
       -0.025082644 -0.016540717 -0.011947468 0.004425182
000250 8c 86 2d 3c 6f 9a 44 bc 27 a3 39 bd 09 a8 8b bb
       0.0105911605 -0.01199971 -0.04532161 -0.0042619747
000260 f5 c9 bd bc e9 8a 96 3c fc ac 57 bc 8f 48 f7 3b
       -0.02316759 0.018376784 -0.013163801 0.0075464915
000270 76 e4 8a 3b 12 6d f6 bc b3 29 9f 3c a1 9a 66 bc
       0.0042386604 -0.030081306 0.019429063 -0.014074952
000280 31 22 35 3c a2 f9 11 3b f2 20 84 bc ec 4a 6a bc
       0.011055515 0.0022274037 -0.01612899 -0.014300089
000290 2d 39 e2 3b 7a 59 32 bc 55 4a ba b9 da 5a 91 bc
       0.0069037885 -0.010885591 -0.00035532066 -0.017743517
0002a0 26 43 1f 3c 33 d9 a0 bc 1a c1 57 ba e1 fe 9c 3c
       0.009720599 -0.019634819 -0.00082303735 0.019164504
0002b0 e5 49 14 3c ad 42 e3 bb 5b 67 b0 3c 43 5e 30 bb
       0.009050821 -0.0069354386 0.021533659 -0.0026911653
0002c0 c7 d7 44 3c 6a 65 b1 bc dd 94 c6 3b 5d 9f b1 bc
       0.012014336 -0.021654803 0.0060602264 -0.021682436
0002d0 84 6d 5c 3c 29 44 5f bb a8 fb ac bc 0b df 85 bc
       0.013453845 -0.0034067726 -0.021116093 -0.016341707
0002e0 c0 03 c0 bc a8 36 25 3d 45 99 3d bb 24 36 af bc
       -0.023439288 0.040335327 -0.0028930467 -0.021388121
0002f0 ec c0 ba bc f3 5f c1 bc 2f 2b 65 3c d7 b7 d7 3c
       -0.02279707 -0.023605322 0.013987347 0.026332779
000300 55 45 30 bc d8 fd 8b bc 83 42 10 bd 55 91 70 bc
       -0.010758718 -0.017088816 -0.03521968 -0.014683087
000310 b5 ac f3 3b 70 16 bc bc 8e bd 0f bc 5a f9 24 bc
       0.0074363598 -0.022959918 -0.008773221 -0.010069216
000320 91 2c 2d bc d2 f1 5e bc 89 d4 13 3b fe e6 a1 3c
       -0.0105697075 -0.013607459 0.00225571 0.019763466
000330 bc 07 87 3b fa 86 de bc 37 9e 2f 3c 43 d8 0f bc
       0.004120795 -0.027163971 0.010718874 -0.008779588
000340 9d 1b 28 bc f0 9b 04 bd 59 23 94 bc 18 01 d7 3c
       -0.01026049 -0.032375276 -0.018083261 0.026245639
000350 b5 76 5f bc 58 eb 74 3b 23 93 87 bc 19 a4 1f 3c
       -0.013639142 0.003737172 -0.016549652 0.009743714
000360 41 da 60 3c 4d ed 85 3c ae 34 dd bc ba 91 5b 3c
       0.013723911 0.016348505 -0.027002659 0.013401443
000370 8a c2 11 3c a3 82 80 3a 78 7a 45 3c 12 0c 92 3b
       0.008896479 0.0009804558 0.012053125 0.0044570053
000380 75 84 04 3c 48 a0 a8 bc 17 9a 80 bc b5 70 2c bb
       0.008088221 -0.02058424 -0.015698476 -0.0026312296
000390 2c d2 26 bb 7d 90 13 3b bb 21 01 bd 93 b0 d4 3c
       -0.0025454862 0.0022516542 -0.03152631 0.025963103
0003a0 97 69 bf ba ec b1 eb 3c 58 51 01 bc 21 88 36 3c
       -0.0014603612 0.028771363 -0.007892929 0.011140854
0003b0 b9 c6 90 3c 29 ab 8f bc 05 11 82 bc 61 04 81 bc
       0.017672883 -0.01753767 -0.015877256 -0.015749158
0003c0 ec af 72 3c a9 30 03 3c dd c2 42 bc 11 68 9d bc
       0.014812451 0.008007207 -0.011887279 -0.019214662
0003d0 66 f5 c5 ba 29 42 e6 bb 09 b7 ba bb d0 9f ae 3b
       -0.0015103042 -0.00702693 -0.005698089 0.0053291097
0003e0 4c ce a6 3c c0 74 78 bc 22 2e 5b 3c 9f f3 5b bc
       0.020362042 -0.015164554 0.013377698 -0.013424783
0003f0 8d d4 00 3c 0e 9f 8b 39 26 8f 0f bd 42 4f c8 3c
       0.007863176 0.0002663065 -0.035048626 0.024451856

fc1.bias f4 [120]
000000 df 8f 39 bd da c5 10 bc 81 0f df bd bf 6e 3b bd
       -0.04530322 -0.008836234 -0.10891629 -0.045759913
000010 e4 84 83 3b 3f 2d 13 bd 24 1e 3a bd c1 b8 e9 bd
       0.0040136445 -0.035931822 -0.0454389 -0.11412192
000020 b0 d8 a8 3b 20 4f 4d 3c 1f e6 20 bd 8a fd f7 bd
       0.0051527843 0.012531072 -0.03928196 -0.121089056
000030 cd 06 da bc 26 19 71 bd f9 75 4b b9 8d a6 32 ba
       -0.026614571 -0.058861874 -0.00019403537 -0.0006814979
000040 90 1a 8f 3d 85 74 ff 3c df 87 6e bd 56 1e e2 bd
       0.06987488 0.03118349 -0.058235046 -0.11040942
000050 57 5a b1 bc 49 aa 10 bd b8 f1 1b 3d df 28 dc 3d
       -0.021649523 -0.035318647 0.038072318 0.10749983
000060 2f 04 d5 bc b1 b6 53 3d 24 56 8f 3c 32 da dc 3c
       -0.026002971 0.0516879 0.01749713 0.026959512
000070 e3 74 3b bc e4 c9 14 be 48 61 2d be 65 cc ed 3d
       -0.011441442 -0.1453014 -0.16931641 0.11611251
000080 15 9b 61 3d ab b9 d4 bc 0c 12 e8 bc 74 26 89 bc
       0.05507954 -0.02596744 -0.028328918 -0.016741969
000090 56 de 8b bc a7 fa fa 3c de 67 f3 3d 4b 3d 8e 3a
       -0.017073791 0.030637098 0.118850455 0.0010852007
0000a0 3b c2 c6 bc 24 9d 76 3c 83 ca 11 3d 46 25 e7 bc
       -0.024262538 0.015052114 0.03559352 -0.028216016
0000b0 df 5f 07 bd f2 1c 38 bc 76 b0 06 bd 19 95 36 3d
       -0.033050414 -0.01123737 -0.03288313 0.044575784
0000c0 46 93 52 3e 57 87 0c bb 49 1b ba 3c 1c fb 5e 3c
       0.20563993 -0.0021442974 0.022718089 0.013609674
0000d0 7b 73 86 bd 96 0a 32 be 55 0e 3d 3e 11 49 5d bc
       -0.06564995 -0.1738685 0.18462498 -0.01350619
0000e0 4b b5 99 3c 9f b4 0e bd f0 dd bd 3c 64 02 3d bd
       0.018763205 -0.034840222 0.023177117 -0.046144858
0000f0 a2 9c 17 bd c7 0e 87 bc d6 49 2b 3d 9f 59 84 3c
       -0.03701461 -0.016486539 0.041818462 0.016156016
000100 7b 2c c3 bc 7c eb 48 3e 65 02 cf bd 85 ee 7a bd
       -0.02382492 0.1962108 -0.101078786 -0.061262626
000110 05 80 55 bd 07 13 0d bd 8a 88 e1 3c de b8 92 3b
       -0.052124042 -0.034441974 0.027530927 0.0044776043
000120 cb ce 0a bd 08 dc 5f 3c 9d 33 98 3c af f7 c6 3d
       -0.03388862 0.013663299 0.018579299 0.09715211
000130 4b ef a1 39 08 65 5e bc 83 03 fd 3c a2 73 d6 bc
       0.000308866 -0.013573892 0.030885464 -0.026178185
000140 7b 27 76 3c 50 b3 09 bd 2c c1 c0 3b fd 51 7e 3d
       0.015024061 -0.03361827 0.005882403 0.06208991
000150 0b 66 a0 3c 9d 39 f4 3d 3b 4c 17 3c a6 3d 79 bc
       0.019579908 0.11925051 0.009234483 -0.015212452
000160 76 12 c2 3c c7 16 0e 3d ce 73 4a bd 17 bc 3f 3d
       0.023690443 0.03468969 -0.049426846 0.046810236
000170 93 01 7d bd dd e5 fd 3d df b1 6c 3d ea 14 b3 bc
       -0.06176908 0.123973586 0.05778682 -0.021860559
000180 52 eb b3 3b 4e 42 a0 bc 00 8b 5a 3d cc 3b 2b 3d
       0.005490699 -0.019562867 0.053355217 0.041805074
000190 1c ff b0 bc d7 f4 cb bd 65 44 1f bb f5 43 07 3e
       -0.02160602 -0.09958809 -0.002430224 0.13209517
0001a0 a8 e3 50 3c ef 52 ef 3d b3 aa 00 bd 60 65 15 bd
       0.01274959 0.1168574 -0.03141279 -0.03647363
0001b0 e7 33 8b bc c9 0a ba bd 01 4d f4 bc 4e 0f 9e bc
       -0.016992522 -0.09084088 -0.029821875 -0.019294407
0001c0 14 df f2 3b a2 9b b8 bc d0 e4 87 3d 20 43 99 3d
       0.007411847 -0.022535149 0.066354394 0.07483506
0001d0 3d 1c 68 3d 5f 14 13 3e 2e a9 e4 bc f1 d5 ad bc
       0.056667555 0.1436324 -0.027912702 -0.02122018

fc2.weight f4 [84, 120]
000000 d7 a4 dd bc d2 30 9b 3d bb a5 88 bd b1 6e ad bd
       -0.02705614 0.07577671 -0.066722356 -0.08468378
000010 60 8a 1c bc 20 35 72 3d bb 50 98 bc 24 7a 9f bd
       -0.009554476 0.059132695 -0.018593183 -0.07786968
000020 36 1a 7d 3d 5e dd 4b bd e8 43 56 3b 87 e5 93 bd
       0.061792575 -0.04977166 0.0032694284 -0.07221513
000030 7c 44 5f bd 0d 3b 8d bc e1 08 db 3c e6 38 dd bd
       -0.05450867 -0.017240072 0.026737632 -0.10801868
000040 2b bd 5e bd 04 c0 ac bc 10 06 a2 bd 7a 34 d5 3d
       -0.054379623 -0.021087654 -0.079113126 0.104104
000050 9b 24 19 bd 2d 1f 60 3c 18 82 11 bd 80 60 f1 bc
       -0.037388425 0.013679308 -0.035524458 -0.02946496
000060 04 ff 45 bc 3c f4 9d bd 23 11 03 3d 00 8e 54 bd
       -0.012084726 -0.077126 0.031998765 -0.051893234
000070 05 ce 89 3d 33 ed 33 bd 2c ab 62 bc 21 bb 72 3d
       0.06728748 -0.043927383 -0.013834756 0.05926049
000080 14 88 80 bd 0e ac e0 bc a8 6e 27 3d 48 2a 7a bc
       -0.06275955 -0.027425792 0.040877014 -0.01526887
000090 74 eb 4f 3d 0c 7c a7 bd 51 05 86 3d 73 09 98 3d
       0.050761655 -0.08177957 0.06543983 0.07423677
0000a0 d4 1e 91 bd f4 62 47 bd 39 5a 58 3d e2 cf 6c bd
       -0.07085958 -0.048678353 0.052820418 -0.05781544
0000b0 4c 07 af 3d cb f1 9b bd 69 98 9b 3c 23 d4 85 bd
       0.08546314 -0.07614478 0.018993573 -0.065346025
0000c0 5e 04 63 bd 01 fa 0f 3c 70 af d3 3d ed b3 ae 3b
       -0.055424087 0.008787633 0.103361964 0.0053315074
0000d0 43 c9 ae 3d 10 1c a7 bd 18 26 86 bb 0d 54 05 3d
       0.085344814 -0.08159649 -0.0040938966 0.03255086
0000e0 dc b2 d0 3c 26 4c 13 bd d5 d2 56 3c 9b d5 30 3d
       0.025475912 -0.035961293 0.01311179 0.04317246
0000f0 9d 10 8a bd ca 32 34 bb 9d 99 d5 3c 1d 2b 84 bd
       -0.0674145 -0.0027496093 0.026074225 -0.06453536
000100 f6 66 8c bd 7e 50 a1 bb 81 d4 76 bd ba 96 b1 3d
       -0.06855576 -0.0049229255 -0.060261253 0.08671327
000110 fd 5c 43 3d 74 f6 8a bd c8 09 a8 3d bf 77 3c 3d
       0.047696102 -0.067852885 0.082049906 0.046012636
000120 34 aa 83 3c f3 1a 23 bd e8 79 8d 3d 5f 65 79 bd
       0.01607237 -0.039820623 0.069080174 -0.06088769
000130 37 1f cc 3c 19 f6 e6 3d ed fa b8 3d 39 16 53 3d
       0.024917228 0.11277408 0.09032235 0.051534865
000140 3e 47 cc 3c 65 4b 98 bd 25 ab 09 3c a0 64 a1 bc
       0.024936315 -0.07436255 0.00840262 -0.019701302
000150 41 2a ac 3c 52 cf b3 3d 82 2c ae 3c ab 3e 9f 3d
       0.021016242 0.087797776 0.021261457 0.07775625
000160 b6 66 f0 3c bf 91 ed 3c 49 c4 a8 3d 99 c6 a7 3d
       0.029345851 0.029000161 0.082405634 0.08192176
000170 4d a1 b0 3c 4c a9 4f 3d 26 9f 1f bd 9b 46 3d bd
       0.02156129 0.050698563 -0.038970135 -0.046209913
000180 7a 3e 41 bd ee fb a5 3d 5c 1f b7 3d 96 52 d5 3d
       -0.047178723 0.081046924 0.08941528 0.10416143
000190 db e8 1c bd c1 b1 8b bd 8c a3 96 bd 1f 77 ce 3c
       -0.038308006 -0.06821013 -0.07355413 0.025203286
0001a0 22 24 06 3d 0c b8 a4 3d 49 49 c4 3c 29 c8 34 3b
       0.032749303 0.08042917 0.023960726 0.0027585125
0001b0 05 73 9d 3d a2 08 d3 3d 7b a4 45 3d 9e fe a0 3d
       0.07687954 0.10304381 0.048252564 0.078610644
0001c0 e8 f5 c5 ba 55 53 99 3a 5e aa 46 3d 3a 6c ab bc
       -0.0015103193 0.0011697809 0.04850232 -0.02092563
0001d0 73 bc 68 3d bf e3 3a 3d fc 0f f6 bc 36 11 9f bb
       0.056820344 0.04562735 -0.030036919 -0.0048543466
0001e0 27 52 a0 3d 28 d1 ad bd d1 4a 54 bd ce 2a 9c bd
       0.07828169 -0.08487159 -0.051829163 -0.07625352
0001f0 3d 21 98 3d e3 a9 db bc 3a df 41 bd d0 05 da 3c
       0.07428215 -0.026814407 -0.047332026 0.0266141
000200 ff ee cb 3c 72 87 9c bd 2a 67 16 3d 66 bf 2d bd
       0.024894236 -0.07643022 0.03671948 -0.04241886
000210 c3 cb 81 bc 10 55 84 bd 74 bc b2 3b a8 08 4a bc
       -0.015844231 -0.06461537 0.0054545943 -0.012331165
000220 8f de 9f bd bb 94 9c 3d 19 23 44 bd 58 2e 30 3d
       -0.078061216 0.076455556 -0.047885034 0.043012947
000230 cc ae 87 3d d5 db a7 bb 5e e3 ef bb 1b cb 14 bd
       0.06625137 -0.0051226416 -0.0073208055 -0.03632651
000240 de d4 57 3d 86 fb 2c 3d 31 fd 7b bd 01 06 49 3c
       0.05269324 0.04223206 -0.06152076 0.012269498
000250 1a a9 8f bd b4 54 ab 3d 51 f6 bc 3d 3d 3a 96 3d
       -0.070146754 0.08365765 0.092266686 0.07335327
000260 01 6d 6e bd 4d 51 ad bd 74 d3 86 3d 3d 41 50 3d
       -0.058209423 -0.084627725 0.065833 0.050843466
000270 71 b5 5a bd 00 26 b1 bd b5 7e 7d 3d 8c e2 5e 3d
       -0.053395692 -0.08649826 0.061888415 0.05441527
000280 dd 00 a6 3d d9 dc 27 bc 1d 92 ed bb eb 22 88 3d
       0.081056334 -0.010245525 -0.007250084 0.06647285
000290 4e 41 97 bd 1e 07 0e bd e2 66 6c bb c7 07 ae bd
       -0.07385503 -0.034674756 -0.0036072065 -0.08497577
0002a0 75 64 1b 3d 13 bb b7 bd 7a d4 f4 bb ed 82 91 3d
       0.0379376 -0.089712285 -0.0074716182 0.0710505
0002b0 ef 4e af bd af 8a 7b 3c e3 6e 2d bd 61 7d 96 bd
       -0.08559977 0.015352889 -0.042342078 -0.07348133
0002c0 b9 f2 ae bd 53 1c b3 bd c3 07 92 bd 8e df d2 bc
       -0.085423894 -0.08745637 -0.07130387 -0.025741365
0002d0 fe c4 4b bc ce e6 b6 3d a1 e9 9f bd bf df 0f 3d
       -0.012437103 0.08930741 -0.07808233 0.03512549
0002e0 f0 a9 3f bd 43 86 9a bd 0e ce f6 3c eb ae fa bc
       -0.046792924 -0.0754514 0.030127551 -0.030600986
0002f0 59 3e f9 3c 2b e0 8e 3b da 86 ae bc 40 25 a1 3c
       0.030425237 0.004360219 -0.021304537 0.019671082
000300 ad 79 7c 3d 63 58 43 bd b8 1d 77 bd 81 5e 37 3d
       0.061639477 -0.047691714 -0.060331076 0.04476786
000310 a8 3a e6 3a eb 8a 45 bd 1e ea 94 bc 8e 4b b8 3d
       0.0017565088 -0.048228186 -0.018178042 0.08998786
000320 45 25 ac bd 4b a5 2a 3d 55 b6 50 bd e6 fb 88 3d
       -0.08405546 0.041661542 -0.050955135 0.06688671
000330 c9 f8 59 bd e7 e7 9a bd b5 ff 6d bc 7f 11 e5 3c
       -0.053215776 -0.07563763 -0.014526297 0.027962444
000340 91 d6 a5 3d 03 2b 8c bd 9a fb 94 bd 30 b9 f2 bc
       0.08097566 -0.06844141 -0.07274552 -0.02962932
000350 f3 e0 28 3d 43 07 b5 3d 71 35 76 bd 10 38 ab 3d
       0.041230153 0.08839276 -0.06010956 0.083603024
000360 84 75 c5 bc 3a 8f e0 bc 55 5b 69 3d 2e 14 59 bd
       -0.024103887 -0.027412046 0.056971867 -0.05299776
000370 1f 68 cd 3c a5 87 2b bd d8 bd 07 bb 59 26 4f bc
       0.025074063 -0.041877408 -0.002071252 -0.01264342
000380 74 0e af 3d fb 1b d7 bc 5c 88 c3 bc 93 64 83 bb
       0.085476786 -0.02625846 -0.023868732 -0.004009792
000390 37 af b5 bd 09 81 d2 3c ae a7 00 bd 67 49 79 3c
       -0.0887131 0.025696294 -0.03140991 0.015215254
0003a0 29 0b 29 3d d5 2a 90 bd e2 7c e2 3c a4 07 56 bd
       0.04127041 -0.070394196 0.02764744 -0.05225338
0003b0 cb 62 5f bd cb 91 66 3d df bc 3b 3b 55 d9 9e bd
       -0.054537576 0.056291383 0.0028646511 -0.077562965
0003c0 c4 29 d3 bd c2 84 35 bd fc 8c 3a be 27 f5 21 be
       -0.103107005 -0.04431606 -0.18217844 -0.15816174
0003d0 b4 f8 11 3d 9d 6b 57 3d a3 f7 0d 3d 67 be 5c 3d
       0.035637572 0.052592862 0.034659993 0.05389252
0003e0 32 c7 29 3b 43 c3 b9 bd 69 19 30 3d 5d 94 4e bc
       0.0025906083 -0.09070446 0.042992983 -0.012608615
0003f0 2e 7b cd 3c 50 69 3f be fb b3 ae 3d ba 6f 02 bd
       0.02508315 -0.18692517 0.08530422 -0.031844832

fc2.bias f4 [84]
000000 62 38 a6 bd b0 9a 92 bd c0 ee a9 3e d2 16 93 bd
       -0.08116223 -0.071584105 0.33189964 -0.07182087
000010 7b aa c6 bd f5 2c bd 3d 32 79 b9 bd f4 b4 af 3d
       -0.09700485 0.092370905 -0.09056319 0.08579436
000020 b1 31 05 bd 1b 99 e1 3d 4c 87 0b 3d 79 c8 ad 3e
       -0.032518093 0.11015531 0.034064576 0.3394201
000030 30 91 e2 3d ac 76 10 3e ec 97 4e bb 75 13 e8 3d
       0.110628486 0.1410777 -0.0031523658 0.11331836
000040 8a 56 b2 3d 77 8c 5b 3d f0 4a 4f 3d 63 61 0a 3e
       0.08707912 0.053600755 0.050608575 0.13513713
000050 95 f9 e5 3d 77 c7 1c 3d 13 4e a0 bd 9e e9 bc bc
       0.112292446 0.038276162 -0.078273915 -0.023060616
000060 6f 18 98 3e 5e e6 fd 3e 81 de 91 3e 10 a1 d3 3e
       0.2970614 0.4958982 0.2849007 0.41333818
000070 6c 93 7c bd 5c 03 d5 3e 23 0f c9 bd f3 50 39 bd
       -0.06166403 0.41604125 -0.0981734 -0.045243215
000080 57 de d2 3d 67 79 c5 bb 2b f5 4c bd d2 50 5a 3c
       0.10296314 -0.006026435 -0.050038498 0.013324933
000090 ca 17 5f bd e0 6c c7 3d 8b 97 bb 3d 5e 65 c8 bd
       -0.054466046 0.09737563 0.09159764 -0.09784959
0000a0 d0 d5 a3 3e f0 92 10 3e 20 64 ab 3c 54 8b 10 3e
       0.31999063 0.14118552 0.020921767 0.1411565
0000b0 b9 32 eb bc 2a e7 4d 3d 6f ed 65 3c f4 10 0c bd
       -0.02871071 0.050269283 0.014033659 -0.034195855
0000c0 98 0a 21 3d 8c 26 f6 3d ef 1f 89 3e e2 c0 59 be
       0.039316744 0.12019071 0.26782176 -0.21264985
0000d0 77 69 58 3d 85 a2 22 3e a6 48 e5 bc 1b 63 3c 3e
       0.052834954 0.15882309 -0.027988743 0.1839718
0000e0 01 07 79 bc 17 82 79 bc e7 92 c5 bb 62 d7 68 bd
       -0.015199424 -0.01522877 -0.006029475 -0.05684603
0000f0 9e 39 06 3d 7d 33 9e 3e e2 22 4b 3e ef a5 13 bb
       0.03276979 0.30898657 0.19837525 -0.0022529324
000100 05 a5 ac 3c 38 a8 0a 3e 0a 19 ed bd ae 86 82 3d
       0.021074781 0.13540733 -0.115770414 0.06373344
000110 7c 32 00 3d d3 3a 7c 3d c0 d7 a3 bd 0a 76 25 bc
       0.031298146 0.061579537 -0.080001354 -0.0100989435
000120 83 42 f3 bc 22 17 2d bd e9 d7 67 3c ea f5 3f 3d
       -0.029694801 -0.04225839 0.014150598 0.04686538
000130 e0 99 6a 3e dc 3f e8 3d c0 ec 14 3e 60 8d 16 bc
       0.22910261 0.11340305 0.14543438 -0.00918898
000140 45 35 34 3e c4 56 cb 3d a4 ed 34 be 38 7e 8d 3d
       0.17598446 0.099286586 -0.17668778 0.0690884

fc4.weight f4 [2, 84]
000000 2e 6b 18 3e 6d 25 01 3e f2 b6 d5 be f8 24 14 3e
       0.14884636 0.12611933 -0.4174114 0.14467227
000010 00 07 e5 3d ff a1 a3 bd 70 76 b6 bd 35 f6 d6 bd
       0.11182976 -0.07989883 -0.08909309 -0.10496179
000020 b8 28 83 bd b7 6d ef 3c 49 d5 0f 3d 41 1a c4 3e
       -0.06404251 0.02922712 0.035115514 0.3830128
000030 65 16 59 3e 8f 73 68 be fe af 4b 3e 88 e1 be 3d
       0.21199949 -0.22700332 0.19891354 0.093203604
000040 0a 37 43 be a3 98 9a bd 9e 29 5d 3e c8 3d 2b 3e
       -0.19063964 -0.075486444 0.21597907 0.16722786
000050 6c ee 48 3e ed bc 46 3d 1c 2e 09 ba 44 0b a9 bc
       0.196222 0.048520017 -0.0005233006 -0.020635255
000060 7d fc 7a 3e 00 0f 21 bf c1 09 99 3e ad ce d7 3e
       0.24510379 -0.62913513 0.29890254 0.4214987
000070 8b 57 4c bb 44 5b db 3e 95 a8 a6 3d 45 2b 17 bd
       -0.003118011 0.42843068 0.08137623 -0.0369065
000080 19 14 f9 3d e4 c7 17 3e 12 9d b8 3b 7a 39 72 be
       0.121620364 0.14822346 0.0056339586 -0.23654738
000090 43 47 e5 3d f6 48 2b 3e 72 c1 14 be fa e1 82 3d
       0.11195233 0.16727051 -0.14526919 0.06390758
0000a0 70 63 be 3e 86 14 53 be 85 ec bc 3d 26 cd 87 3e
       0.3718524 -0.20613298 0.092248 0.26523703
0000b0 61 4a 8b 3b 15 bf 03 3d ea 1a 15 bd 06 9a 96 bc
       0.00425081 0.032164652 -0.03640262 -0.018383991
0000c0 10 4f 99 bd 03 f3 54 be 86 cc d4 3e 78 28 58 3e
       -0.07485783 -0.20795827 0.4156229 0.21109188
0000d0 fe 16 00 be 4e 54 2e 3e 94 2d 9e 3d 37 f8 5f 3e
       -0.12508771 0.17024347 0.07723537 0.2187203
0000e0 20 f7 a9 bd 3d bb 06 bd 55 3e fc bd 6e 3c e0 3c
       -0.082990885 -0.032893408 -0.123165764 0.027372565
0000f0 85 76 5b 3c 55 87 bb 3e b9 35 54 be 75 ed ae bc
       0.0133949565 0.36626688 -0.20723619 -0.021353463
000100 95 dd 01 bc 88 79 15 be 40 db a1 3d 64 b2 04 bd
       -0.007926364 -0.14597142 0.07903147 -0.03239669
000110 e9 81 c9 bd 61 36 10 be 1e 59 6e 3e 6d 43 96 bd
       -0.098392315 -0.14083244 0.23276183 -0.07337079
000120 73 1e 25 be 8d b3 a0 3d 75 12 2a bd dd b8 8c bc
       -0.16124897 0.078467466 -0.04152151 -0.017177993
000130 6a b2 b2 be af f0 62 be 67 97 5f 3e 04 97 8d bd
       -0.34901744 -0.22162126 0.21835099 -0.069135696
000140 12 92 8c be 2d 06 99 3e 7c eb 57 3e d4 19 1c bd
       -0.27455193 0.29887524 0.21085924 -0.03811057
000150 ea 8a 6b bd 93 30 c6 3c 46 54 d0 3e 8d 8a b3 bb
       -0.057505526 0.024193084 0.40689296 -0.005479163
000160 9e 16 bb bd c0 2a 05 3e 52 96 b9 3d 6b 9d 9d 3d
       -0.09135173 0.13004589 0.090618744 0.07696041
000170 61 b3 00 3e 84 2c 0b be 54 8e 05 bd e0 83 cc be
       0.12568428 -0.135912 -0.032606438 -0.39944363
000180 0a 4c 3c be 9b 74 06 3e 4a 40 54 be 2a 1b 69 be
       -0.18388382 0.13130419 -0.2072765 -0.22764269
000190 75 a3 40 3e e6 c2 d6 bd 64 56 3a be 9e eb 69 be
       0.18812354 -0.10486393 -0.18197018 -0.22843787
0001a0 8a 2d 60 be ec 31 a8 bd 93 a7 da 3d a9 53 15 be
       -0.21892372 -0.08212647 0.106764935 -0.14582695
0001b0 d4 92 aa be b1 65 21 3f dd d4 8e be 5a 9c b7 be
       -0.33315146 0.63045794 -0.27896777 -0.35861474
0001c0 f3 d0 8f 3c 3c a9 d3 be ab 1f a5 bd a1 43 95 3d
       0.01755569 -0.41340053 -0.08062681 0.0728829
0001d0 6f 67 51 bd 2c 16 f1 bd 4a b5 ef bc 5e 42 82 3e
       -0.051124033 -0.11771807 -0.02926125 0.2544126
0001e0 d0 40 2f be 03 a9 55 be ec 21 92 3c 6a a9 ad bd
       -0.17114568 -0.20865254 0.01783844 -0.08479579
0001f0 aa f1 72 be 05 8f 71 3e 88 79 01 be c3 7f 21 be
       -0.23725 0.23589714 -0.12644017 -0.15771393
000200 09 9b 09 3e 4d f7 c8 bd b0 c4 36 bd 89 6c 96 3d
       0.13438047 -0.09812794 -0.04462117 0.0734492
000210 a7 3f a8 3c 13 ad 87 3d 88 cc c3 be 4c bf 8b be
       0.020538164 0.06624808 -0.38241982 -0.27294385
000220 d8 94 ee 3d e0 c5 de bd e5 f6 d3 bd b1 c1 8e be
       0.116494834 -0.108775854 -0.10349826 -0.2788215
000230 57 e8 c6 bd 41 6a 63 bd b2 3b 18 3e e5 0e 7a 3d
       -0.09712284 -0.055521253 0.14866522 0.06104936
000240 37 4e d6 bc 40 15 95 be 21 4c b0 3e f5 1a c8 bd
       -0.026160343 -0.29117775 0.34433082 -0.09770767
000250 2e 19 ea 3d 52 88 a2 3e 41 28 15 be 61 df f1 bd
       0.11430584 0.3174463 -0.14566137 -0.11810184
000260 88 25 e8 bd 3e 73 10 bc 99 5b 1b be 46 e9 fb 3d
       -0.113352835 -0.008816538 -0.1517166 0.12300353
000270 b3 09 28 3d 6b a8 a5 bd db c9 18 3d 7f b5 68 bd
       0.041024875 -0.08088764 0.03730188 -0.056813713
000280 63 39 93 3e 5a b8 09 3e 68 0e 9f be 2c 5e ed bd
       0.2875472 0.13449231 -0.3106568 -0.115902275
000290 a8 cc 1d 3e 25 55 8c be 8c 42 25 be c8 57 e8 bc
       0.15410101 -0.2740871 -0.16138667 -0.02836217

fc4.bias f4 [2]
000000 60 5d be be 69 22 ed 3e
       -0.37180614 0.46315315
